models/cnn_3layers_32_32_32_76.26_20250408095434/model_250.onnx (onnx, 83210 bytes, 12 tensors)

sequential_2_1/dense_9_1/Cast/ReadVariableOp:0 f4 [64, 7]
000000 f5 56 15 bf 20 4b 26 bf d0 1b a0 3e ac 38 aa 3e
       -0.5833581 -0.6495838 0.3127122 0.33246362
000010 06 a4 c9 bc c0 bc 31 bf 18 3b c3 3e a2 3f 44 bf
       -0.024614345 -0.69428635 0.38131022 -0.76659596
000020 f6 dd aa bf bd 82 28 3e 9a 91 29 bf ff c8 45 3e
       -1.3348987 0.16456123 -0.66237795 0.19314955
000030 1a 06 5e 3e 7a fd 98 3e 10 23 da 3e 38 e5 84 3d
       0.21682015 0.29880887 0.42604876 0.064890325
000040 c2 2d 79 bf 37 02 59 bf d4 71 c3 be c9 46 f7 3e
       -0.97335446 -0.84769005 -0.3817278 0.48296192
000050 50 bc e1 be f7 3c a5 bd 03 8a 1f bf 89 d1 b7 3e
       -0.44088984 -0.08068269 -0.62319964 0.3590205
000060 a0 d5 a8 3e 35 e4 30 bf 00 df 4c be 9e 84 d8 3e
       0.32975483 -0.69098216 -0.20006943 0.4228868
000070 de 0e 92 3e ca 24 6d 3e f9 15 0f bf cc e1 34 3e
       0.28526968 0.23158565 -0.558929 0.1766426
000080 f0 8a d8 bf 8a 5f 6a 3e 67 6e 5e bf 3c 99 9a 3e
       -1.69174 0.22888008 -0.8688721 0.30195034
000090 cd 63 8b be 10 23 7b 3e e7 a8 9c 3e 0b 31 00 bf
       -0.2722458 0.24525094 0.30597612 -0.50074834
0000a0 1e 2c 83 bf e1 ae 6c be ec 28 7c bf df 9e 3d bf
       -1.0247838 -0.23113586 -0.9849994 -0.74070543
0000b0 ab 69 b0 3e 76 72 a4 3e 96 11 92 be 11 69 94 3d
       0.34455618 0.32118577 -0.28529042 0.07246602
0000c0 66 e3 c9 3e 76 91 3d bf fc 6a ad bf 67 e0 b3 3e
       0.39431304 -0.7405008 -1.3548274 0.35132143
0000d0 c6 51 6e bc c5 ac 34 bf 66 1a 94 3d d4 50 cc 3e
       -0.0145458635 -0.70576125 0.072315976 0.39905417
0000e0 b5 53 4e bf ea 85 58 3e bf 56 42 bf 00 28 42 3e
       -0.80596477 0.21144834 -0.75913614 0.18960571
0000f0 04 6e 8c 3e 38 14 6e 3e b5 58 4b 3e 55 9d 34 be
       0.27427685 0.232499 0.19858058 -0.17638142
000100 9e cb 2f bf 00 53 cd 3e 57 5c d1 3e 4c a4 b3 3e
       -0.6867007 0.40102386 0.40890762 0.35086286
000110 26 6f 59 bf 60 4f c1 be 6f 45 d1 be 28 a3 38 bf
       -0.84935224 -0.3775587 -0.40873286 -0.72123957
000120 d6 91 37 bf d5 c3 1f bf ad 73 65 3e be 5c a4 3e
       -0.71706903 -0.6240819 0.22407408 0.32102007
000130 bd a3 a2 3e b4 1d 96 3e c8 10 99 3e 15 8b 05 bf
       0.31765547 0.29319537 0.29895616 -0.5216535
000140 12 ba 7c 3e 56 e8 9e bf 8c b8 93 3e b5 13 71 bf
       0.24680355 -1.2414653 0.28851736 -0.94170696
000150 32 2f 0d 3e 15 5c 87 bf 08 89 85 bd b8 fa 5b bf
       0.13787535 -1.0574976 -0.06520277 -0.8592944
000160 30 4f ba 3e cf 10 c4 be 55 c3 a3 3d 09 5e 3a bf
       0.3638854 -0.38294074 0.07996241 -0.72799736
000170 a0 97 83 3e ff 2c 14 bf 94 d3 82 3e 80 8b 9d 3e
       0.25701618 -0.5788116 0.25552046 0.30770493
000180 fd d0 9e bf e4 ac 0e be 24 0f 24 3e 11 57 7d bf
       -1.2407528 -0.1393314 0.160214 -0.9896098
000190 20 7a 69 3e 52 a7 58 3e 19 5d a2 3e 53 0c a1 bf
       0.22800493 0.21157578 0.31711653 -1.2581886
0001a0 0e 1b 04 be 0a 94 7c be 83 bb 5b bf d5 4d 33 bf
       -0.12900946 -0.24665847 -0.85832995 -0.7004064
0001b0 b3 61 19 bf 73 55 d7 3e b0 85 ba 3e 88 00 c9 3e
       -0.599147 0.4205738 0.3643012 0.39258218
0001c0 e7 84 ad be b6 0d 36 bf 95 de 00 bd f8 29 0b bf
       -0.3389046 -0.7111467 -0.03146227 -0.54360914
0001d0 a5 34 0e 3e ba 60 b8 3e c5 5e d1 3e 25 b2 de 3d
       0.1388727 0.36011297 0.40892616 0.10873822
0001e0 cc 6d 45 3e e9 3c 5f 3e 00 0a 79 3e 61 29 3b be
       0.19280165 0.21800579 0.24320221 -0.18277504
0001f0 e8 79 ac bf f0 da 81 3e 9d b2 53 bf 47 7c 0d bf
       -1.3474703 0.2536235 -0.8269442 -0.5526776
000200 98 e1 6d 3e a3 e2 87 3e 51 9c a9 3e 35 e9 91 bf
       0.23230588 0.26540098 0.33127072 -1.1399294
000210 8a 10 c0 3c 0b 27 0a 3f 0a b9 25 be de 29 d7 3e
       0.023445386 0.53965825 -0.16183868 0.4202413
000220 6f 2f 24 bf 1c fe 3c 3e 84 7d ec be eb b7 d7 be
       -0.6413488 0.1845631 -0.4618951 -0.42132506
000230 e8 b1 e4 3d bf 05 d3 3d 43 d4 c2 be 03 d1 08 3d
       0.111667454 0.1030383 -0.38052568 0.033402454
000240 8f 6a e7 bf 34 8b ee 3d db 89 88 bf 20 7b 4f be
       -1.8079394 0.11647645 -1.066707 -0.20261812
000250 e8 a9 5e bf aa 7d 68 bf 6d 35 2f be 02 69 2f 3f
       -0.86978006 -0.9081675 -0.17110224 0.68519604
000260 5e 97 04 3f 40 1e 25 bf 6d 6d 52 bf ad fd 31 3e
       0.5179347 -0.6449928 -0.8219822 0.17381926
000270 c6 fa 6e bf 8b 3b 9c bc a0 7b aa 3e 02 08 a4 3e
       -0.933514 -0.019071361 0.33297443 0.3203736
000280 9b ec 79 3e 95 fc 72 bf 2a c1 62 3e 7b b6 38 bf
       0.24406664 -0.9491666 0.22143999 -0.72153443
000290 99 bb 80 be 23 d2 0e 3f 1a ff cf 3d d8 73 8a bf
       -0.25143126 0.55789393 0.10156079 -1.0816603
0002a0 95 23 4e bf a4 56 54 3e b2 5a 34 bf 57 e6 79 3e
       -0.80523044 0.20736176 -0.7045089 0.24404274
0002b0 fe 8c 92 3e df 05 3e 3e 82 bd 55 3e fd da d8 be
       0.28623194 0.18556927 0.20873073 -0.42354575
0002c0 11 93 38 bf 85 e7 06 3f 0d 88 36 bf 57 83 06 3e
       -0.72099406 0.5269702 -0.71301347 0.1313604
0002d0 44 c9 df be 88 f0 8b bb ef 1a 9f 3b 5d 5c 6a bf
       -0.4370824 -0.004270617 0.0048555057 -0.91547185
0002e0 8a fc 42 bf 4c 3a bc bd 69 68 80 3f 0b 5f 76 3d
       -0.76166594 -0.09190807 1.0031863 0.060149234
0002f0 93 14 df be 61 34 6a bf 27 00 c6 3e 2a 65 05 bf
       -0.43570384 -0.91486174 0.3867199 -0.5210749
000300 18 62 c0 3e 01 29 ec 3e 20 0b 4c bf 99 db cd be
       0.3757484 0.46125033 -0.79704475 -0.40206602
000310 99 df 5c bf 5a 5a a0 3e 11 85 51 bf 4c 6c 80 3e
       -0.8627868 0.31318933 -0.8184367 0.25082624
000320 be 9b a6 3e ed 12 46 3d 6a d5 3e 3e 0e eb 02 be
       0.32540697 0.048357893 0.18636099 -0.12784979
000330 90 b5 88 bf b1 23 79 bd 53 87 34 bf 0d f0 68 3d
       -1.0680408 -0.060825054 -0.7051899 0.056869555
000340 25 34 f7 3e 19 1b 0a 3f 81 8e f5 3e 48 e2 62 bd
       0.4828197 0.539476 0.47960284 -0.05539158
000350 d4 b9 eb 3e 83 c3 65 bf ba 6f cf 3d ad 92 bf be
       0.46040213 -0.8975145 0.10128732 -0.37416592
000360 f5 b8 26 bf 6e 20 ab be 29 66 59 bf 56 91 a1 bf
       -0.6512597 -0.3342318 -0.8492151 -1.2622478
000370 a1 c5 e4 be a2 ca be 3e 81 55 a4 3e 62 ec b4 bc
       -0.4468203 0.37263972 0.32096484 -0.022085372
000380 ea 8a 82 be 77 b2 4a 3e 5c 34 66 3e c5 f7 4b 3e
       -0.25496608 0.19794641 0.22480911 0.19918735
000390 2c c7 29 bf 05 ac 96 bf 8b dc 54 3e cc cc 8e be
       -0.6631954 -1.1771246 0.20787255 -0.27890623
0003a0 24 05 0f bf 05 dc 53 3e 25 4f bc 3e 0b 40 ea 3e
       -0.5586722 0.206894 0.36779132 0.45751986
0003b0 8b 0c 81 bf ce bc 93 be 2f 9d d0 3e 94 f3 4d bf
       -1.0081953 -0.28854984 0.40744922 -0.80449796
0003c0 9f 5d a1 3e da b9 92 3e d3 4b e6 3d 3e 5c 59 bf
       0.3151674 0.28657418 0.11244931 -0.84906375
0003d0 82 0b a0 be cf fe ba 3e e3 86 7d bf 9d b9 c8 3e
       -0.3125878 0.3652253 -0.99033946 0.39204112
0003e0 64 82 a7 3e d2 d2 83 3e 46 28 53 bf c8 3b af be
       0.32716668 0.2574678 -0.8248333 -0.34225297
0003f0 e0 a8 1a bf 0d c5 de 3c ac 13 25 3e 1c d6 f8 3d
       -0.6041393 0.02719357 0.16120785 0.12150213

sequential_2_1/dense_9_1/BiasAdd/ReadVariableOp:0 f4 [7]
000000 f6 ee e3 3d 28 98 38 3f 63 09 e1 be 73 2b 1d bf
       0.111295626 0.7210717 -0.43952474 -0.61394423
000010 5a 48 45 3f 06 14 f2 be ff b1 bf bd
       0.77063525 -0.47280902 -0.09360122

sequential_2_1/dense_8_1/Cast/ReadVariableOp:0 f4 [64, 64]
000000 dd 0e 0f 3e 32 e2 db 3e 0a b0 2b bf 26 6f a0 bd
       0.13970514 0.4294601 -0.6706549 -0.078337
000010 f5 ec 8f be 8d b2 0a 3e 17 21 91 be 7e d2 ea be
       -0.2811047 0.13544674 -0.28345558 -0.45863718
000020 2f 0a af 3e d1 1f a0 3e d7 33 90 3e 4f 89 ad be
       0.34187457 0.31274274 0.2816455 -0.3389382
000030 0e d0 fe 3e 71 64 5c 3f 64 5b 0e 3f 76 87 ec 3e
       0.49768108 0.8609076 0.556082 0.46197098
000040 a9 f9 1b 3d f7 0f 31 3e 3c af da 3e fd 08 c9 3e
       0.03807989 0.17291246 0.42711818 0.3926467
000050 aa 19 8d be 82 97 76 3e 38 eb 1c 3d 0b e9 53 3e
       -0.27558643 0.24081233 0.03831026 0.20694368
000060 56 55 61 3e 96 6c 14 be 1c 13 29 3f ed d4 4f 3f
       0.2200521 -0.14494547 0.66044784 0.81184274
000070 25 1e 67 3e aa 91 f4 be 52 4b 87 3e cc 76 b1 3e
       0.22570093 -0.47767383 0.26424652 0.34660947
000080 19 a2 28 be 7e 1a bd 3e cd 49 01 3f d5 cb a2 3e
       -0.16468085 0.36934274 0.50503236 0.31796136
000090 98 63 26 3f bf 43 26 bf ed 9e 08 bf 8b 70 b9 be
       0.6499572 -0.6494712 -0.533675 -0.36218676
0000a0 a2 89 41 3f a1 74 18 3e d3 d7 7e be 19 f5 2d 3f
       0.75600636 0.1488824 -0.24887018 0.67952114
0000b0 60 e2 e9 be 28 9c fb be c1 39 65 be 3c 7d b0 3e
       -0.45680523 -0.49142575 -0.22385313 0.34470546
0000c0 30 b4 d5 3e 6b 5b 23 bf ee a9 47 be b8 58 54 bf
       0.41739035 -0.6381137 -0.19498417 -0.82947874
0000d0 1d 61 ef be e8 52 85 3e cf f4 35 bf f1 4a 10 3f
       -0.4675378 0.26039815 -0.71076673 0.5636435
0000e0 64 f9 b5 3e 0c f3 7d 3e cc 77 cc be a7 07 c4 3e
       0.35541832 0.24799746 -0.39935148 0.38287088
0000f0 cf 2e d2 3e 52 ec dc bd b8 7c 34 3e e4 65 8e bd
       0.41051337 -0.10787262 0.17625701 -0.06953028
000100 62 46 28 bf 00 c3 da 3d fa 1d 9b 3e fe ac 51 bf
       -0.65732396 0.106817245 0.30296308 -0.8190459
000110 52 97 20 3d 84 46 17 bf a1 61 3d bf 41 87 aa be
       0.03920681 -0.59091973 -0.73977095 -0.33306316
000120 4e 55 82 3e 22 af 17 bf c5 13 16 3e a4 61 e0 3a
       0.25455707 -0.59251606 0.14655979 0.0017118943
000130 34 e7 48 bd 88 76 d4 bd 34 0d ca be 94 40 a8 bd
       -0.049048617 -0.103741705 -0.39463198 -0.08215442
000140 5d c5 11 3e 7f 4f fd bd 58 8c 4c bf 70 4e fd bd
       0.14235444 -0.12368678 -0.7990165 -0.123684764
000150 6b fe 31 3d 07 ef a7 3e ed ac a5 3e a4 f7 ec 3e
       0.043455523 0.3279955 0.32358494 0.46282685
000160 95 9e b6 3d 0a 42 34 bf 36 0e 3e 3e 4e 3c 41 3e
       0.08916966 -0.7041327 0.18560109 0.1887066
000170 75 69 45 3e 84 7a a1 bd f8 d3 80 3d cc e9 dc 3e
       0.1927851 -0.07884696 0.0629043 0.43147123
000180 a1 9e fd bd d6 b2 4a bf f2 25 c8 be 1c ef c6 be
       -0.12383772 -0.7917913 -0.3909145 -0.388543
000190 7d 96 64 3d 8a 50 49 bd b2 ab cc 3e 58 bb fb 3c
       0.05580758 -0.049149074 0.39974743 0.03072898
0001a0 4c f3 c1 3e 3c 69 42 bc 40 66 ee 3c b5 f0 3f 3e
       0.37880933 -0.01186591 0.029101491 0.18744166
0001b0 f1 80 9d be eb 5e ad 3d e1 d2 a7 3e c8 80 e5 be
       -0.30762437 0.0846537 0.32778075 -0.44824815
0001c0 54 86 59 3f a7 7b 2d be 2f 4d 96 3d bc 7e b4 3e
       0.84970593 -0.16941701 0.0733894 0.3525294
0001d0 92 18 c2 bd 9e dc e5 3e bf 93 24 3e 13 82 9b be
       -0.09477343 0.4489488 0.16071986 -0.30372676
0001e0 d7 29 9c be f4 27 50 be c8 7f 00 be c0 5f c5 be
       -0.3050067 -0.20327741 -0.12548745 -0.38549614
0001f0 2f 51 9e be 5a 43 24 bf 27 5e e6 be db 5e e4 be
       -0.30921313 -0.6416527 -0.44993708 -0.4460362
000200 53 f0 57 be 92 03 69 be ab 06 da 3e 26 4e a5 be
       -0.2108777 -0.22755268 0.42583212 -0.32286185
000210 f2 7c ce 3e 70 74 ab bc 26 a2 08 be a1 45 77 bd
       0.403297 -0.020929545 -0.13343105 -0.060369138
000220 9a 96 32 bf 63 13 bc be 45 38 cd be 94 07 e0 3e
       -0.6976105 -0.3673354 -0.40081993 0.43755782
000230 74 50 d9 3e cd d9 00 bf 61 6f 89 3d b6 9e 9a be
       0.42444193 -0.5033234 0.06710697 -0.30199212
000240 fa 26 03 bf f3 74 6f 3e c2 44 8a be 34 0a 3f 3f
       -0.5123135 0.23384456 -0.27005583 0.74624944
000250 c6 42 87 3c 2f 08 5d be d7 13 17 bf d3 77 41 bf
       0.016511332 -0.21585153 -0.5901465 -0.7557346
000260 9e b8 39 bf c3 34 76 be 60 af c4 be bc e4 1f bf
       -0.7254733 -0.24043564 -0.3841505 -0.62458396
000270 12 2f 12 bf ac fd c5 be 03 dc 00 3f 19 85 62 be
       -0.57103074 -0.386701 0.5033571 -0.22121085
000280 4a 3c fa bc 60 ef 0a bf 07 4e bc 3e bc 57 58 3e
       -0.030546326 -0.5427151 0.3677828 0.21127218
000290 c6 09 9f be bd 95 53 3f 65 f3 1d 3f 64 14 f6 3d
       -0.31062144 0.8265036 0.61699516 0.12015608
0002a0 23 bf 32 bf 6e df a9 be 7f 29 d5 3d 31 34 22 bf
       -0.698229 -0.33178276 0.104083054 -0.6336089
0002b0 47 a6 fc 3b df d9 89 3e 2a 5f 97 3f 56 f5 00 3f
       0.0077102515 0.26924035 1.1825917 0.5037435
0002c0 11 af 65 3d 7a 21 54 3f 11 ec 0f 3e 27 87 5d 3f
       0.05607516 0.8286358 0.14054896 0.8653435
0002d0 e9 da 17 bf 42 a6 1b bf 5b cc e6 3e 4e 47 2f 3f
       -0.59318405 -0.60800564 0.45077786 0.6846818
0002e0 7a f0 94 bd 87 98 03 3f 2d 11 33 3f 0c f6 02 3c
       -0.0727243 0.51404613 0.69948083 0.007993232
0002f0 09 ce e0 bc 9e d3 bc bd 63 c0 6f 3e e3 77 47 3e
       -0.027441995 -0.0922005 0.23413233 0.19479327
000300 c0 a0 e8 3e 50 e1 dc 3e aa 25 b5 be 8b ef 01 3e
       0.45435143 0.4314065 -0.35380298 0.12689035
000310 ef 6b 27 bf 84 2b 74 be 56 cd 02 3e b5 d6 d2 3d
       -0.6539907 -0.23844725 0.12773642 0.10294858
000320 ac 62 e3 3d cd 94 be bd d3 c2 e9 3c 67 37 20 bf
       0.111028045 -0.09305725 0.028535282 -0.6258454
000330 c3 82 25 3f ca d8 de bb e1 5b 71 bc ed fe 6a 3e
       0.6465265 -0.0068007456 -0.014731378 0.22948809
000340 e3 bd ea 3d 00 fc 7b 3b fe 4d 74 3e 97 e9 d1 3e
       0.11461999 0.0038449764 0.23857877 0.40998527
000350 9c f2 8a be 7c d2 d5 3d b1 aa 49 3e b5 a4 4e 3e
       -0.2713822 0.10440537 0.1969402 0.20180018
000360 97 ea 22 be 08 90 68 3e 23 50 e5 3e c3 f7 68 3c
       -0.15909801 0.22711194 0.44787702 0.014219227
000370 b5 de 5b 3d c2 dc 50 3a 65 82 cf 3d 66 45 cb 3e
       0.053679187 0.0007967466 0.10132293 0.39701384
000380 a3 80 74 be d8 d7 72 3d 80 d1 4a 3d 7d 1b 30 bc
       -0.23877196 0.059287876 0.0495162 -0.010748741
000390 8a 81 9e 3e eb 69 ce 3b 41 c0 e8 be f4 50 04 bf
       0.30958205 0.0062992475 -0.45459178 -0.51686025
0003a0 70 2a 5b bd 1e dd db 3e 2f 39 07 bf da c8 8a 3e
       -0.05350727 0.42942137 -0.5282163 0.27106363
0003b0 5d 36 f6 3d d7 81 19 bf fa e8 70 be 8c d0 24 bd
       0.12022088 -0.59963745 -0.23526374 -0.04023795
0003c0 04 13 8a bd de 7b c0 3d 8d a7 ba be 5d 56 f6 be
       -0.06741908 0.09398626 -0.36455956 -0.48112765
0003d0 86 37 f8 be 87 a1 e0 bd 6b 62 39 bf 70 f4 d3 3e
       -0.4847986 -0.10968309 -0.724158 0.4139743
0003e0 3f 52 1d 3e 5d d0 d9 3d 01 99 8c be 24 e5 97 3d
       0.15363406 0.10635445 -0.27460483 0.07416752
0003f0 0c fb f7 3d 5f f0 61 3e 69 55 1d 3e bc c0 5b be
       0.1210843 0.2206435 0.15364613 -0.21460241

sequential_2_1/dense_8_1/BiasAdd/ReadVariableOp:0 f4 [64]
000000 a2 4d 3b bd cb dc 0f 3d fc 4b e9 3d 9f 3b 11 be
       -0.045728333 0.035122674 0.11391446 -0.141829
000010 7e bb dc 3d 56 5a 72 be 4a d2 11 bd 86 b3 09 bc
       0.10777949 -0.23667273 -0.035600938 -0.008404618
000020 23 9c 33 3e 6e 25 b7 bd 48 c7 60 3c 08 76 f1 3d
       0.1754003 -0.08942686 0.013719387 0.11790091
000030 b3 c9 e5 3d 91 6d 8b 3d bc e9 96 bd 4c 20 0b 3e
       0.11220112 0.068080075 -0.073688 0.13586539
000040 16 91 4d 3b 32 5a b2 3d 39 fc 25 bd 15 db 80 3e
       0.0031366996 0.0870861 -0.04052374 0.25167146
000050 3a e5 90 3d ca 7a 0e 3e 45 4a 6d 3e 83 f1 77 3e
       0.070749715 0.13914028 0.23172863 0.24213223
000060 84 c7 1a 3e 0a 14 23 3d 09 10 dd 3d 92 d4 4f 3e
       0.15115172 0.039814033 0.10794074 0.20295933
000070 80 8d 16 3e 52 f1 c3 3c 6a 9a 88 3e 7f b5 c8 3d
       0.14702415 0.023918781 0.2668031 0.09800243
000080 80 2d 3b 3d 8b 81 d8 bd 01 be eb bd 1d 7a ee bd
       0.04569769 -0.10571583 -0.1151085 -0.11644385
000090 97 e7 92 3d 77 f6 59 3c fe c4 80 3e 81 9e e2 3d
       0.071730785 0.013303391 0.25150293 0.110653885
0000a0 b9 44 83 3e ed bf 63 3d 66 fb b9 3d 09 0f 85 3e
       0.2563837 0.055602957 0.090811536 0.25988033
0000b0 87 de 23 3d e1 64 d9 3d 55 24 3b 3e ab 4c c6 bd
       0.04000714 0.10614944 0.18275578 -0.09682592
0000c0 e5 2c 71 3e 36 cf 00 3d c6 f8 cc 3d 3d f1 2b 3e
       0.23552282 0.03144761 0.10008387 0.16791244
0000d0 6b 60 18 3d f3 43 8c 3e 81 40 64 3e eb 53 9a 3c
       0.037201326 0.2739559 0.22290231 0.018838843
0000e0 a6 ce 48 bd 77 e5 2d bd 94 1b 8d 3d 35 49 42 3e
       -0.0490252 -0.042455163 0.06890026 0.18973239
0000f0 86 1f d9 3a 21 32 e9 bd 98 3e 06 3d cc bb 21 3d
       0.0016565181 -0.113865145 0.032774538 0.039485738

sequential_2_1/dense_7_1/Cast/ReadVariableOp:0 f4 [128, 64]
000000 ee 62 d2 3d a3 6e ba bd f2 02 f7 bd b0 ee f1 3c
       0.102727756 -0.091031335 -0.12061109 0.02953276
000010 de 5e d9 3d 20 03 ff bd 50 e7 7f bc b7 85 29 3e
       0.106137976 -0.12451768 -0.015619114 0.16554914
000020 b0 0b b1 3c 32 8a 7c bd f4 75 8b 3d 98 3e 91 3c
       0.021612018 -0.06165523 0.06809607 0.017730042
000030 d8 c1 52 bd dc 26 23 bd 98 94 2b bd 98 9e 9a bc
       -0.051454395 -0.03983198 -0.041889757 -0.018874452
000040 c8 de 1b bd e8 c6 eb bc b0 2e 0d bc 1f 53 34 be
       -0.038054258 -0.02878137 -0.008617088 -0.17609833
000050 77 c7 c7 bd b8 2c 87 3d 00 60 21 bc f4 78 71 3d
       -0.09754842 0.06600326 -0.009849548 0.05895324
000060 cf 34 03 be 07 15 30 3e 4e 14 0d be 03 a7 8f bd
       -0.12813114 0.17195521 -0.13777277 -0.07014277
000070 88 88 f9 bd c4 d5 2b be 97 35 29 3e 80 0e f5 bb
       -0.121842444 -0.16780764 0.16524349 -0.007478535
000080 1f e9 cf bd d4 54 be bd e7 91 33 3e 56 af b5 3d
       -0.10151886 -0.092935234 0.17536126 0.08871333
000090 68 ca 8e 3c a2 a3 c1 3d 40 0f 24 3b 06 9f 96 3d
       0.0174305 0.094550386 0.0025033504 0.0735455
0000a0 48 c0 2a bd d6 3f 97 3d a8 1a fd 3c 7b da 2f 3e
       -0.04168728 0.073852226 0.0308965 0.17173187
0000b0 3b d0 2f 3e 5e 41 df 3d 17 84 34 be 08 bc 59 3d
       0.17169277 0.1090114 -0.17628513 0.053157836
0000c0 39 6f 31 3e 7c 90 30 be 61 e9 09 3e 6e 88 30 be
       0.17327584 -0.17242616 0.13467933 -0.17239544
0000d0 fd c3 89 bd 74 61 06 bd e4 00 48 3d ea c7 c5 3d
       -0.06726835 -0.032807782 0.048828974 0.09657271
0000e0 99 f0 ef bd 58 73 87 bd 9c a1 91 bd 9e 32 cb bd
       -0.11715812 -0.06613797 -0.07110903 -0.09921764
0000f0 d6 ae d2 3d 54 a2 2a be e8 59 1e 3d fa ce ea 3d
       0.102872536 -0.16663486 0.03865996 0.11465259
000100 75 62 9b 3e f6 bc 42 3e 9c 51 f6 be 2a 2d 57 3e
       0.30348554 0.19017395 -0.48109138 0.21013322
000110 03 f3 fc bd d2 48 b8 3d 3b 02 05 3e 55 49 4b 3e
       -0.12351038 0.08998264 0.12989132 0.19852193
000120 29 13 ba be 38 7b c9 ba 4a 20 51 bc 93 5b 90 bd
       -0.36342743 -0.0015371805 -0.012764046 -0.070487164
000130 03 9a 29 be 7a a4 c1 3d c7 a3 32 be c9 aa 12 bc
       -0.16562657 0.094551995 -0.17445289 -0.008951851
000140 9f ed 10 3e 8a 5f a6 3d b5 28 84 3d 86 9a d7 be
       0.14153145 0.081236914 0.06453077 -0.4211008
000150 8c aa d9 3d 70 57 3e be ce 13 04 be d2 00 5a bd
       0.10628232 -0.18588042 -0.1289818 -0.05322344
000160 18 7a f8 bd 1d ef b7 3e 52 ec 98 bc a2 99 c3 3e
       -0.121326625 0.35924616 -0.018667374 0.3820315
000170 5d 5b bd bd d4 c3 99 be f8 ad a9 be 25 8f d9 3e
       -0.09245942 -0.30032218 -0.3314054 0.42492023
000180 62 71 34 be 06 6c 63 3d d2 90 22 be 9e e9 ce be
       -0.17621377 0.05552294 -0.15875557 -0.4041261
000190 22 d9 b5 3d 0a 7b 9d ba 75 e5 c3 bd 6b 9e f6 bd
       0.088793054 -0.0012014818 -0.0956525 -0.120419346
0001a0 99 40 17 bf 71 13 07 be 18 a6 35 bd 51 2c 29 bd
       -0.59082943 -0.1319101 -0.044347852 -0.04130203
0001b0 24 07 85 be ed 16 11 bf 53 7c be 3e d0 fe 2d be
       -0.2598201 -0.56675607 0.37204227 -0.16991735
0001c0 80 98 ba 3e 77 00 ca be c4 9f 33 3e c6 4c cb be
       0.36444473 -0.3945348 0.17541414 -0.3970701
0001d0 b2 3c a0 3e 6c 42 ab 3b 63 74 4c 3e e1 38 ae 3d
       0.31296307 0.005226424 0.19966273 0.085069425
0001e0 51 81 cc be 22 24 53 be 1d d7 7b be b9 59 82 be
       -0.3994241 -0.20619252 -0.24593778 -0.25459078
0001f0 90 5e 08 be 10 2a 73 be ca 82 c0 3d f2 d8 9b be
       -0.13317323 -0.23746514 0.09399946 -0.30438954
000200 dc fd 27 be f3 46 d3 bd 82 fe d8 bd 6a 55 28 be
       -0.16405433 -0.10316267 -0.105954185 -0.16438833
000210 78 df 0a 3e 05 3c 0a be f0 5b a1 bc 9d b4 02 3e
       0.13561809 -0.13499458 -0.01969716 0.12764211
000220 74 40 41 bd c2 7e e1 3d a6 2a b2 bd 50 7b 30 be
       -0.047180608 0.11010505 -0.08699541 -0.1723454
000230 f1 61 18 3e 26 cb d5 bc d4 16 22 be ff 39 b2 bd
       0.14881112 -0.026097845 -0.1582902 -0.08702468
000240 9e 2d e6 bd 43 92 d2 bd c8 92 48 bd a0 d9 2f 3c
       -0.112391695 -0.102818035 -0.048968107 0.010733038
000250 8e a5 f7 3d c7 1c ed bc 20 73 20 3d 89 04 21 be
       0.12092124 -0.028944386 0.03917229 -0.15724386
000260 80 24 f3 3b 33 79 83 bd 61 e4 21 be 1c 5c 36 bd
       0.0074201226 -0.06419601 -0.15809776 -0.044521436
000270 54 70 73 3d 2e b3 ee 3d da a1 27 bd 80 f0 4f 3b
       0.059433296 0.116552696 -0.040925838 0.0031729043
000280 4c 33 6e bd c7 03 81 bc 7c f5 49 3d 2e 65 bb 3d
       -0.05815439 -0.015748871 0.049306378 0.09150158
000290 cf 81 89 bd b3 cc c7 bd 3a 57 ea 3d 55 70 1f 3d
       -0.06714212 -0.0975584 0.114424184 0.038925488
0002a0 50 4a 95 bc c0 b6 93 bc d3 da 0a 3e f3 a9 28 be
       -0.018223912 -0.018031478 0.13560037 -0.1647108
0002b0 62 e5 96 3d d0 ab 9c 3c 4c 22 30 be d0 da 50 bd
       0.0736797 0.019124895 -0.17200583 -0.050989926
0002c0 ec a4 2a bd f4 f6 1b 3d 2f ac bd bd cc 2f a0 bd
       -0.041661188 0.03807731 -0.09261357 -0.078216165
0002d0 e0 dc 2d 3d 14 06 ed 3c 54 d3 25 3d 0d 8e 0c be
       0.04244697 0.028933562 0.04048474 -0.13726063
0002e0 74 6e b3 bd 9a 8a ab 3d 6c 7b 7c bd 81 14 d7 bd
       -0.08761302 0.083760455 -0.06164114 -0.10501958
0002f0 a4 0b d3 bd dc 96 05 bd a8 77 a6 bc 00 ea a4 3c
       -0.10304955 -0.032614574 -0.020320728 0.020131111
000300 fe 04 94 3d 6d da e4 bc f2 a2 88 bd 58 65 ad bc
       0.07227515 -0.027936185 -0.06671704 -0.021166489
000310 bc 28 32 3d 80 28 25 be 8b a0 0a 3e f7 5a 15 3e
       0.04349588 -0.16128731 0.13537805 0.14585482
000320 a5 de 88 bd 1e 23 b3 bd c2 62 e6 bd 50 70 26 3d
       -0.06683091 -0.087469324 -0.11249305 0.040634453
000330 f0 6f 53 3c bc e7 f7 3d f6 12 ef bd fb 61 09 3e
       0.012905106 0.12104747 -0.116735384 0.13416283
000340 e5 1d c2 bd 41 2a ec bd d0 ad 33 bc 5d 1b 1a be
       -0.09478358 -0.11531497 -0.010966733 -0.15049501
000350 b5 ea 25 3e 40 31 7e bc 12 e7 f9 3d 18 29 c7 bd
       0.16202815 -0.015514672 0.12202276 -0.09724635
000360 86 16 97 3d 59 fd e9 3c 17 55 8c bd d6 c7 94 3d
       0.07377343 0.028563188 -0.06852167 0.07264678
000370 4e 15 11 be 8e 21 bb 3d d8 6b d8 bc 60 42 85 bb
       -0.14168283 0.091372594 -0.026418611 -0.0040667504
000380 52 2e f7 3d 90 6b 2f bd f0 4e 77 bd 04 61 1c be
       0.12069382 -0.04282719 -0.060378015 -0.15271384
000390 20 c1 ca 3b e6 30 c7 3d 8b 2b 1f 3e ec 6c 4e bd
       0.006187573 0.097261235 0.15543954 -0.050396845
0003a0 dd 3c 36 3c 3e 3f df 3d b4 28 79 3d a4 4c 3b 3d
       0.011122909 0.10900734 0.060829833 0.045727387
0003b0 ec fe 60 3d 52 b3 b3 3d 63 03 cd bd 9f a9 11 3e
       0.054930612 0.08774437 -0.100104116 0.14224862
0003c0 e0 45 11 bd 90 79 0b 3c de fb c1 bd 24 d5 8c 3d
       -0.03546703 0.0085128695 -0.09471868 0.06876591
0003d0 b7 4b 15 3e c0 d5 61 bc 00 19 76 3b 56 60 b7 3d
       0.14579664 -0.013783872 0.0037551522 0.089539215
0003e0 05 ce 01 3e 87 ae fe 3d fa 52 28 3d a0 3e 1d be
       0.12676246 0.12435632 0.041094758 -0.15355921
0003f0 c9 01 2c 3e 7c d4 08 3d 9d bc 30 be 85 37 22 3e
       0.16797556 0.033405766 -0.1725945 0.15841492

sequential_2_1/dense_7_1/BiasAdd/ReadVariableOp:0 f4 [64]
000000 45 c6 17 ba 36 1b 38 3c aa c4 43 3e 43 94 46 3c
       -0.00057897373 0.011236956 0.1911799 0.012120309
000010 b0 a4 23 be b2 22 42 bd 6f c8 86 bd ba b0 76 bd
       -0.15980792 -0.04739637 -0.065811984 -0.060227133
000020 86 35 8d bd 08 a0 93 be 0f d2 56 bd b7 17 71 be
       -0.068949744 -0.28833032 -0.05244642 -0.23544203
000030 11 c2 35 bd 42 c5 9c be 97 65 4b be 5a e9 50 be
       -0.04437453 -0.30619246 -0.19862972 -0.20401517
000040 85 55 e1 3b 13 24 78 be 64 95 01 bd 48 b9 0a 3e
       0.00687665 -0.24232511 -0.03163661 0.13547242
000050 bf 37 78 bd eb 9c fc bc 89 b8 4a be 58 d1 0a be
       -0.06060004 -0.030836543 -0.19796957 -0.13556421
000060 83 91 09 be c7 03 f2 bc ce 7f b1 bd 9c b2 0a bc
       -0.13434415 -0.029542817 -0.08666955 -0.008465435
000070 cb 18 8b bd 05 97 3f 3d f4 96 50 bd 17 f2 1e bb
       -0.06791838 0.046774883 -0.05092521 -0.0024253184
000080 af 57 c6 39 f6 f3 a5 be c3 22 32 be 54 ea df 3d
       0.00037830832 -0.3241269 -0.17396073 0.109333664
000090 2f 16 15 bd 98 c1 99 be e1 e3 1b bd 6a e4 8e be
       -0.03639811 -0.30030513 -0.03805912 -0.2790864
0000a0 64 52 19 3e f3 04 98 bd 36 f9 11 bd d2 24 8d be
       0.14972836 -0.07422819 -0.035638057 -0.27567154
0000b0 21 64 8c be f2 33 08 3e 56 5f 60 bd a0 68 9e bc
       -0.27420142 0.13301066 -0.05477842 -0.019336998
0000c0 21 fe 9c bd 05 53 22 3d 7c 1c 17 bd 5c be 83 3d
       -0.07665659 0.039629955 -0.0368924 0.064327925
0000d0 1a c4 52 bd fe 8c 89 bd 52 5d d9 3c 62 cd b2 be
       -0.05145655 -0.06716345 0.026533756 -0.3492232
0000e0 04 2c 32 3e 4b 3c 3c be a1 ff ed bd 97 b7 71 3c
       0.17399603 -0.18382375 -0.11621023 0.014753244
0000f0 f3 8d 87 bd 92 06 54 be 28 58 78 bd 15 a1 4c 3d
       -0.066188715 -0.20705631 -0.060630947 0.049958307

sequential_2_1/conv1d_5_1/convolution/ExpandDims_1:0 f4 [32, 32, 1, 3]
000000 60 fe 84 bd 5c 03 47 bd bc 98 db bd 3a 83 73 3d
       -0.06493831 -0.048587188 -0.10722491 0.05945132
000010 dd e4 1b be 61 7f e6 bd 8e 11 1c be 60 53 45 3c
       -0.15224023 -0.11254764 -0.15241072 0.012043804
000020 c4 85 3f bd 55 b1 2a 3d 03 dd bc 3c be f9 b0 bd
       -0.04675843 0.041673023 0.023054605 -0.086413845
000030 e1 0f 25 3d a8 3f 39 be a4 65 20 bd b4 22 0a 3e
       0.040298346 -0.18090689 -0.039159432 0.134898
000040 4a 9b e3 bd 4b a8 b4 3d 90 77 c5 bd d3 34 5f 3d
       -0.111136034 0.08821162 -0.09641945 0.054493736
000050 9a d0 12 be cb 9a 12 3e 20 c7 d6 bc 42 2d 1b be
       -0.14337388 0.14316861 -0.026217997 -0.15153983
000060 90 5f 26 3d 68 a8 eb 3c 00 64 c4 3c 18 34 11 bc
       0.04061848 0.028766826 0.023973465 -0.008862518
000070 ff 10 7a 3d 47 1c 14 3e b6 9b 40 be 28 59 e8 bd
       0.061051365 0.14463912 -0.18809399 -0.1134513
000080 5e 85 c1 3d fc 64 42 3d 28 af 17 be 69 3c 2d 3e
       0.09449266 0.047459587 -0.1481291 0.16917576
000090 28 04 f4 bd 12 cd 01 be 60 ff 30 3c 4c b2 33 3d
       -0.11914855 -0.12675884 0.010803074 0.04387121
0000a0 31 5f 07 3e 78 78 79 bd fd ff ee 3c cc 17 03 3d
       0.13219906 -0.060905904 0.0291748 0.032005116
0000b0 1b 16 59 bd c3 a6 be bd ab 39 90 bd b4 20 8f 3d
       -0.052999597 -0.09309151 -0.07042249 0.069886595
0000c0 86 bf 63 3d 4d 48 2a bd a0 21 2d bc 90 b0 76 bc
       0.055602573 -0.041572858 -0.010567099 -0.015056744
0000d0 5e 39 f8 bd 02 22 bd bd 56 25 f5 bd 4c 04 48 3d
       -0.12120317 -0.09235002 -0.11970012 0.048832223
0000e0 80 7a 94 bb 6a 83 48 be cf 3c f0 3d 37 19 96 3c
       -0.0045312047 -0.1958138 0.11730348 0.01832257
0000f0 e2 40 13 3d 7b a9 04 3e bc 59 2e bd d8 2e fd 3b
       0.03595055 0.12955277 -0.042566046 0.0077265315
000100 b1 70 44 3d 9c 0b 23 be 9b 33 0b be d0 4e 57 3c
       0.047959033 -0.15922397 -0.13593905 0.013141349
000110 37 3e 22 3e af 98 0c be 8a 64 41 be bf f8 0d be
       0.15844046 -0.13730119 -0.18886009 -0.1386442
000120 8b 0f 03 3e 56 02 6a bd 96 7c 81 bb d6 7a a3 3d
       0.12798898 -0.057131134 -0.0039516194 0.079824135
000130 72 de 83 3d 8c 73 2f 3d dc 75 5c bd 8e e7 83 3d
       0.064389125 0.042834803 -0.053823337 0.0644065
000140 15 b8 a6 bd ce fe ca 3d dc 6c 96 bd 90 15 9f bc
       -0.081405796 0.099118814 -0.07344982 -0.019419461
000150 54 e3 08 3d d8 6d 3c 3d 10 33 2f 3c 50 7f c7 bd
       0.033419922 0.046003193 0.010693327 -0.0974108
000160 1c b4 04 3e 44 38 3b bd 60 40 94 bc 84 2d 79 bd
       0.12959331 -0.045707956 -0.018097103 -0.060834423
000170 24 d3 29 3d c5 d6 ea bd 90 b9 88 bd 32 1c d2 3d
       0.041461125 -0.11466745 -0.06676018 0.10259284
000180 b7 1b b2 3d 81 2f 01 be 29 b4 a1 3d 67 58 40 bf
       0.086966924 -0.12615778 0.07895691 -0.7513489
000190 46 ad ce ba 05 00 90 3e db 55 bc 3d 86 1b fd bd
       -0.0015768192 0.28125015 0.09196063 -0.12358765
0001a0 76 2d da 3d dd 8c c3 3e 22 4b 28 be 54 f6 2c bf
       0.10653202 0.38193408 -0.16434911 -0.67563367
0001b0 46 07 b6 3d 5c cf ae 3d 81 22 fd be d3 66 4e bf
       0.08888106 0.085356444 -0.49440387 -0.8062565
0001c0 4f 52 5c 3d fd 63 bc 3d e3 6e 95 be f7 cc 93 3d
       0.053789433 0.09198759 -0.29186162 0.07216828
0001d0 0d a9 58 3d dc 1b 4d bf f6 e4 25 bf ce 74 1e 3f
       0.052895594 -0.80120635 -0.6480249 0.6189698
0001e0 a6 ab d8 bd 9f 1a 75 3a 57 5a 82 3c 9a f0 ba 3c
       -0.10579614 0.0009349975 0.015912218 0.022819806
0001f0 82 1f 10 3e a7 4c 09 bf 10 8c a7 3c 13 e0 90 3d
       0.1407452 -0.5363259 0.02045253 0.07073989
000200 ff 47 4c 3d 91 66 24 3e 37 d6 77 3d c0 28 fe bb
       0.04987335 0.16054751 0.060507026 -0.0077563226
000210 b4 a7 2a be 88 4d b4 bd 4d a8 13 3e f7 ca 22 3d
       -0.16665536 -0.088038504 0.1441967 0.039744344
000220 90 d0 86 bc 8c 9a 79 3d 5a 9b 84 bf 73 6c c6 bd
       -0.016456872 0.060938403 -1.035991 -0.09688654
000230 66 23 8a 3e 90 fb c1 3c 33 20 a3 bd 4c 56 bc bd
       0.26980132 0.023679525 -0.07965126 -0.09196147
000240 6e f2 f3 bd 83 45 07 bd 52 70 f5 be 1d 97 30 be
       -0.11911474 -0.033025276 -0.47937256 -0.17245145
000250 ca c6 a4 3d e8 ec ae bc 2f 41 8b bd 95 a7 69 bd
       0.080457285 -0.0213532 -0.06799542 -0.057044584
000260 4a ed 93 3d 6c 1e c8 3e 28 14 cd be 42 27 fa 3c
       0.07222994 0.3908571 -0.4005444 0.030536298
000270 0c 7c 19 be a5 41 ab be a1 a5 a2 3e 94 6e 25 be
       -0.14988726 -0.3344852 0.3176699 -0.16155463
000280 9d 39 44 ba 45 c5 26 3e 64 b2 c7 3c d7 99 fc 3d
       -0.00074853917 0.1628619 0.024377055 0.1233403
000290 df 07 30 3d 46 c5 0a 3e 67 65 38 be 6d 00 74 be
       0.042976256 0.13551816 -0.18007432 -0.23828287
0002a0 53 69 21 3c 2a aa c4 3e 45 0b 8d 3e 69 42 32 3d
       0.009851771 0.38411075 0.2754766 0.043520365
0002b0 2f 5d 8e 3d cc 62 15 bd 17 fd 9a be 6c e3 c4 3e
       0.06951367 -0.036471173 -0.30271217 0.3845476
0002c0 d8 5b 4d 3f 2c 37 d3 bc eb 51 b4 bd b3 55 88 3d
       0.8021827 -0.025783144 -0.08804687 0.06656971
0002d0 b0 1b cf 3d 99 55 2b be b3 d3 c3 3c e8 8b 13 bf
       0.10112703 -0.16731872 0.023904657 -0.57635355
0002e0 35 3b 61 be 10 7e 5a bb 32 02 4a bd a9 d3 fc bc
       -0.21995242 -0.00333393 -0.0493185 -0.030862646
0002f0 79 ec 34 bd e0 90 b7 3d 2d cd b6 bc c1 94 c2 bd
       -0.04417083 0.089631796 -0.022314632 -0.09501029
000300 d1 d1 02 3e b2 8a ee 3d a6 75 c0 3d 9b 5c b0 bd
       0.12775351 0.11647548 0.0939744 -0.08611413
000310 05 2a 2a be 46 1e 68 3c 75 f4 38 bd 36 e7 c3 bd
       -0.16617592 0.014167374 -0.045155007 -0.09565584
000320 b2 ea 17 bc 35 6e 25 3c 45 c3 2b 3d 64 ef 85 bc
       -0.009272264 0.010097076 0.04193427 -0.016349502
000330 b8 a6 14 be e4 78 53 3d 80 18 3e 3b 99 ad 32 be
       -0.14516723 0.051628962 0.0029006302 -0.17449035
000340 3c 6d 14 be 4b 8f 8a 3d 79 0c 20 be 1e b5 d2 bd
       -0.14494795 0.06765612 -0.15629758 -0.102884516
000350 86 fb aa bd f8 9d 67 3d c0 a0 4a bd a1 91 a0 bd
       -0.083487555 0.056547135 -0.04946971 -0.078402765
000360 00 75 64 3c c0 84 bd bb 60 d9 e9 3b 49 c5 24 3e
       0.013943911 -0.0057836473 0.007136509 0.16090883
000370 74 69 82 3d 44 7a 05 be 17 96 27 be 5a 61 15 bd
       0.0636777 -0.13034922 -0.16365848 -0.036469795
000380 f0 28 2a bb b0 c4 e3 bd d2 ed 8d bd 2d 3b 2e 3e
       -0.0025964342 -0.111214995 -0.06930126 0.17014761
000390 ca 90 b7 3d 6c 55 fe bd 62 22 8b 3d cf 45 08 be
       0.08963163 -0.12418637 0.067936674 -0.1330788
0003a0 a8 dc fe bc 40 07 e2 3c 7c db 21 bd 73 78 a9 bd
       -0.031111076 0.027591348 -0.039515957 -0.08274927
0003b0 ba 1a 3d be c6 56 b0 3d 61 a3 ae bd 3b 61 9b bd
       -0.18467227 0.08610301 -0.08527256 -0.075869046
0003c0 58 3f c6 bc 0a 6e e4 bd 6a fe 33 be d3 af 94 bd
       -0.024200127 -0.11153801 -0.1757752 -0.07260098
0003d0 17 fd 2e 3e a7 00 e1 bd d8 b6 f3 bc 7d 10 0a be
       0.17088734 -0.109864525 -0.029750273 -0.13482852
0003e0 00 53 c1 bd 32 85 55 bd 6f 12 e0 bd f6 13 0f bc
       -0.09439659 -0.052128978 -0.10941016 -0.008732786
0003f0 be 15 82 3d 30 a3 56 bd 92 45 a0 bd d2 2c 49 be
       0.06351803 -0.05240172 -0.078257695 -0.19646004

sequential_2_1/conv1d_4_1/convolution/ExpandDims_1:0 f4 [32, 32, 1, 3]
000000 aa 0a 8e 3c b2 a3 c9 bc b0 5b 15 3d 41 52 96 bd
       0.01733907 -0.024614189 0.036464393 -0.073399074
000010 3a 51 5d 3d b4 72 cb bd bd 34 0f 3d 20 da d7 3d
       0.05403254 -0.09933987 0.034962405 0.10539651
000020 0e 0c 91 3d 83 ef 02 3e 78 54 dd 3c 40 9b e7 3b
       0.070823774 0.12786679 0.027017817 0.007068068
000030 20 f9 5a bc 30 df 19 bd bf df 17 be 51 07 00 3e
       -0.01336506 -0.037566364 -0.14831446 0.12502791
000040 f9 9b 08 3e 01 a3 23 3e d1 b9 fe bd 95 cc 7f 3d
       0.13340749 0.1598015 -0.124377854 0.062450964
000050 00 31 02 3b 8f 33 8c bd ba 1e e2 3b d4 ff d0 bd
       0.0019865632 -0.068457715 0.0069006355 -0.10205045
000060 40 90 0b be 68 5c 07 be 4b a7 e4 bd 57 e7 ba bd
       -0.13629246 -0.13218844 -0.11164721 -0.09126156
000070 9f b4 45 3d d3 24 1a 3e dd cb 52 3d 5d 83 fb bd
       0.048267957 0.1505311 0.05146395 -0.12280915
000080 27 ee 46 3d 30 cb 25 3c 75 06 2e be 6c e5 30 bd
       0.048566964 0.010119244 -0.1699465 -0.043187544
000090 9b bc 27 be 23 fb 23 3e cd 1e ad bd 22 a6 a8 3c
       -0.16380541 0.1601377 -0.084531404 0.02058703
0000a0 e5 43 48 bd 98 51 21 3e 0f 18 d3 bd ec 25 64 3d
       -0.048892874 0.15753782 -0.10307323 0.055700228
0000b0 c3 82 11 3e 1f 2c 30 3d 5b de 01 be 7f fb fd 3d
       0.14210038 0.043010827 -0.12682478 0.12401485
0000c0 30 50 c8 3c 70 7e b4 bc 40 b4 3d bc 40 23 1d be
       0.024452299 -0.022032946 -0.0115786195 -0.15345478
0000d0 87 26 de bd ba 67 b8 3d a4 af b0 bd 9a 61 0c 3e
       -0.10847192 0.09004159 -0.08627251 0.13709107
0000e0 9c c8 e0 3d 20 83 e9 bb 1a df e7 3d ae 25 f8 3d
       0.10975763 -0.007126227 0.1132185 0.12116562
0000f0 9e a0 1c 3e e5 26 a2 bc 82 31 cb 3d b6 93 8c bd
       0.15295646 -0.019793937 0.09921552 -0.06864111
000100 02 84 f9 3d 90 4a 1b bd 16 6e f0 3d af b8 0b 3e
       0.121833816 -0.037912905 0.11739747 0.1364467
000110 92 a0 91 3d ba b8 eb 3d 68 07 28 3d ae 4e bf bd
       0.071107045 0.11509843 0.04102269 -0.09341179
000120 80 28 87 3b 8c 85 03 3d 5a 11 d2 3d 00 2f 08 3a
       0.004124701 0.032109782 0.10257216 0.0005194992
000130 a4 cf 1e bd 30 12 1c 3d 0e f0 f5 bd 58 3e d1 bd
       -0.03877224 0.038103282 -0.120086774 -0.10216969
000140 f3 ca 33 be 1b 2d e2 bd ea c4 11 be 91 c8 a8 bc
       -0.17557888 -0.110437594 -0.14235273 -0.02060345
000150 44 c9 0c 3e 45 22 b1 bd ed 47 11 3e 80 89 90 ba
       0.13748652 -0.086491145 0.14187594 -0.0011027306
000160 5c 12 43 3d 9c 1e da bd d9 0f a0 bd 88 8f c3 3d
       0.04762493 -0.106503695 -0.07815523 0.09548861
000170 05 b6 3a be 66 26 53 3e f7 d6 0c 3d 0a 65 8f bd
       -0.18233497 0.20620117 0.034384694 -0.070016935
000180 ba 71 c6 3d 4a 81 05 bd 2e 3c 2c bc 9c 66 1d be
       0.0968966 -0.032594003 -0.010512395 -0.15371174
000190 2c 16 58 be 43 a6 b2 be cc 36 98 bd f2 e0 31 be
       -0.21102208 -0.34892473 -0.07432327 -0.17370966
0001a0 48 b1 e8 bd 50 65 55 bc b0 56 2c bc a8 93 a0 3c
       -0.11361939 -0.013024643 -0.010518715 0.019601658
0001b0 cf d5 0c 3e 07 59 00 3e 1c 0f 87 3d 00 08 0f 3b
       0.13753437 0.12533961 0.06594679 0.0021824837
0001c0 ac 2d 0c 3d f8 15 b6 3c 58 ca 83 3e 4b fe 66 3e
       0.034223244 0.022227272 0.25740314 0.22557943
0001d0 53 86 75 3e 48 94 9f 3e 20 3b 99 3d ba aa 9a 3b
       0.23977022 0.31167817 0.0748198 0.004720059
0001e0 a4 e6 95 3d 64 81 32 bd a7 72 bf bd db c7 2f 3d
       0.07319382 -0.043580428 -0.0934804 0.042915206
0001f0 82 09 24 be 26 05 9b 3d bb 3d b6 3d 5f 07 14 3c
       -0.16019252 0.07569341 0.08898493 0.0090349605
000200 02 c4 26 bd d8 75 12 bd 12 66 eb bd 3d 3a e5 bd
       -0.04071427 -0.035756916 -0.11494078 -0.11192749
000210 cc 5a 1e be f0 0a 31 bd 1c 31 6d 3d 62 cf ae bc
       -0.15464324 -0.04322332 0.057908162 -0.021339122
000220 8b 64 35 3d 84 bc 86 be 3b f1 07 be c1 0d d9 bd
       0.04428534 -0.263157 -0.13275616 -0.105983265
000230 ea b0 0a be fc d6 07 3c 94 b6 a3 bd 01 34 49 3e
       -0.1354405 0.008291002 -0.079938084 0.19648744
000240 e6 f5 11 be 3e 55 c6 3d 8c a0 89 bd 37 e0 35 be
       -0.14253959 0.096842274 -0.06720075 -0.17761312
000250 62 89 64 be 94 a4 1c 3e c9 b5 e8 3c 11 cc 60 3d
       -0.22318032 0.15297157 0.028406994 0.054882113
000260 4b 73 f0 3d 30 78 16 3c c1 de a5 bd 0c b0 1c be
       0.117407404 0.009183928 -0.080991276 -0.15301532
000270 32 5f 7b 3e 6b 70 6a 3e 80 be 48 3e 26 5d 8e 3d
       0.24548033 0.22894447 0.1960392 0.069513604
000280 05 1a 06 3e b0 cb 76 3d 71 d9 ef 3d 28 26 e0 bd
       0.13095863 0.060252845 0.117113955 -0.10944778
000290 b2 19 b7 bd 41 8c 8b 3d a8 34 4c 3e 5d a9 e2 3c
       -0.08940448 0.06813861 0.19941962 0.02766865
0002a0 82 6f 32 be c9 7b c2 bd 8d fb 03 be e8 db 6c 3d
       -0.1742535 -0.094962664 -0.12888928 0.057826906
0002b0 d8 59 8c 3d 40 74 50 bd 5a 46 10 be bd e3 f3 bd
       0.06853074 -0.050892115 -0.14089337 -0.11908672
0002c0 00 3a 01 bc 5d a9 22 be 53 ea a9 be d4 c2 42 be
       -0.007887363 -0.1588492 -0.33186588 -0.19019634
0002d0 33 f2 22 3d cd a5 2e 3c 6d 52 10 be cf c1 e0 bd
       0.03978176 0.010659647 -0.14093943 -0.10974466
0002e0 2c e9 21 be 80 82 b7 bc 51 e2 31 3e ee 9b 3c 3c
       -0.15811604 -0.022401094 0.17371489 0.011511786
0002f0 f4 17 e6 3c d9 91 f7 3d 07 37 0b be 9f 46 61 3c
       0.028087594 0.12088365 -0.1359521 0.013749748
000300 3a 4f 80 3e 85 a3 e0 bd aa 5f f4 bd 9b c6 21 3e
       0.25060445 -0.10968689 -0.11932309 0.15798418
000310 e5 6f 42 be f7 d6 cb bd 29 59 42 3e fe 22 80 3d
       -0.18987997 -0.09953111 0.18979324 0.06256674
000320 98 93 46 3e 6e e9 1c be c8 87 3e bd 00 73 96 bd
       0.1939224 -0.15323421 -0.04651621 -0.07346153
000330 20 b6 06 3c 90 c3 99 3c de d5 fe 3d 7a 91 e5 3d
       0.008222133 0.01877001 0.12443136 0.11209388
000340 4c 04 a6 bd 12 6a 98 3d 84 56 ad be ca 82 0a 3e
       -0.08106288 0.07442106 -0.3385507 0.13526455
000350 5b 2c 1a 3e 62 0a e0 be 33 00 85 be 8e fb 3d 3e
       0.15055983 -0.4375792 -0.25976714 0.18552992
000360 94 4b 3b 3d 10 b2 67 3c 47 e9 20 be f5 1a 6d 3e
       0.045726374 0.0141415745 -0.15713988 0.23154815
000370 8f da 39 3e e3 15 e2 3d cc 69 19 3f 86 1e 08 bd
       0.1814978 0.11039331 0.5992706 -0.033232234
000380 b3 d5 c2 be 67 fb c5 bd b6 ab bb 3d 2d 29 18 be
       -0.38053665 -0.09667092 0.09163611 -0.14859457
000390 40 ff b7 3b 88 a6 d8 3c cd 57 96 bd 7d 9c 10 3f
       0.005615145 0.026446596 -0.073409654 0.5648878
0003a0 b3 82 32 3e 0f 09 1b 3e 22 70 ff 3d 46 2e a0 3d
       0.1743267 0.15140174 0.124725595 0.07821326
0003b0 e2 77 de bd d4 9f c3 be 7f 4f 2f be 01 53 77 bd
       -0.108627096 -0.38207877 -0.17120169 -0.060381893
0003c0 b4 83 62 bd d6 7c ea bd b0 64 f5 3c 95 f7 d0 3e
       -0.055301383 -0.11449592 0.029955238 0.4081389
0003d0 0f 24 ef 3e 04 46 cb 3e fb 56 d4 bd a4 b5 5a be
       0.46707198 0.39701855 -0.10368153 -0.21358353
0003e0 77 76 3b be 70 dd 12 bd f8 41 1c be ea 3c 34 be
       -0.1830691 -0.03585571 -0.1525954 -0.17601362
0003f0 5f bc 6f 3d bd 93 1d 3e f2 95 9b 3e e4 9a 08 bd
       0.058529254 0.15388389 0.30387837 -0.03335084

sequential_2_1/conv1d_3_1/convolution/ExpandDims_1:0 f4 [32, 1, 1, 3]
000000 4f c6 35 3e a9 d8 30 be 37 89 d0 bd c6 56 45 3e
       0.1775143 -0.1727015 -0.10182422 0.19271383
000010 f5 5f e4 bd 4d dd 54 be 87 95 8a be a3 94 de 3c
       -0.11151115 -0.20787545 -0.27067205 0.027170485
000020 d4 26 29 3e f2 ad 79 3e 53 dd 35 be 1e 7f 6b be
       0.16518718 0.24382761 -0.1776021 -0.2299771
000030 90 2d e2 bd 37 5e 1c be 70 b4 bb 3c 80 32 42 bd
       -0.110438466 -0.15270315 0.022913188 -0.04741144
000040 a1 1a 0d be 68 fb a1 3d c4 e7 2e 3e 01 d4 df 3d
       -0.1377969 0.0790928 0.17080599 0.109291084
000050 9a fc 61 3e b1 f6 5e 3e ac 30 68 3e 38 13 12 bd
       0.22069016 0.21773793 0.22674817 -0.03566286
000060 1e 3a 5c be 92 87 df bd 69 36 1b be e5 be 83 bc
       -0.21506545 -0.1091453 -0.15157475 -0.016082237
000070 b9 76 2e be 1a c1 8b 3d 75 6d a4 3e 37 ee 1b be
       -0.17037477 0.068239406 0.3211476 -0.1522759
000080 5e 59 08 be 0a 63 0d be e0 33 1f 3c 30 6f 5b be
       -0.13315341 -0.13807312 0.009716958 -0.21429133
000090 1c 0f 75 bd 83 83 5c be 80 c2 55 3b 95 e8 5f 3d
       -0.059828863 -0.21534543 0.0032617152 0.054665167
0000a0 5e f3 66 3e d1 b7 90 be 4a 26 36 be a2 24 01 3e
       0.22553775 -0.2826524 -0.17788044 0.1261163
0000b0 d4 ae ef bd e2 23 35 3e dc 0f 3f 3e d0 73 02 bd
       -0.11703268 0.1768947 0.18658394 -0.03184873
0000c0 6c 76 f6 bd e8 fd 2e 3d 0e d0 c0 bd 2b 09 80 be
       -0.12034306 0.042722613 -0.09414683 -0.25006995
0000d0 e6 f4 95 3e b6 1d a0 3c 96 9f 06 3e 24 94 33 3e
       0.29288405 0.019545417 0.13146815 0.1753698
0000e0 75 d2 9c be d8 33 09 3d 00 70 7d 3b 90 2f 5f be
       -0.30629316 0.033496708 0.0038671494 -0.21795487
0000f0 3f 0a 16 3e fc 2d bb 3d c0 ee 35 3d 30 51 68 bd
       0.14652346 0.0913963 0.044417143 -0.05671805
000100 38 3e 91 bd ea 3f 85 bd f4 62 45 3d e9 1d 9e 3d
       -0.070919454 -0.06506331 0.048190072 0.07720549
000110 75 84 65 be 37 fe 23 3e 7e cd c5 3d eb 0b 99 be
       -0.2241381 0.16014944 0.09658335 -0.29891905
000120 a4 d0 22 be 50 64 1a bd 3a d1 21 be d6 ff 1c be
       -0.15899903 -0.03769332 -0.1580247 -0.15331969
000130 b2 e7 0f be b8 ef 00 be e3 7e 70 be 5a 56 3a be
       -0.14053228 -0.12591445 -0.23485903 -0.18197003
000140 e0 c7 5f 3e 0f 9e 9c 3d e1 b5 5e 3c 6d 1e 55 be
       0.2185359 0.07647335 0.013593168 -0.20812388
000150 09 3f 80 be e9 2a ab bd 13 39 3e 3e c8 7c 66 be
       -0.25048092 -0.08357794 0.1857646 -0.22508538
000160 8c 90 57 be b0 6e 32 3d c7 bc f6 3d c8 cf 12 3e
       -0.21051234 0.04356259 0.12047725 0.14337075
000170 27 ec 4f 3e c4 12 2a 3d eb dd 33 be d6 39 83 3e
       0.20304929 0.041521803 -0.17565124 0.25630063

const_fold_opt__232 f4 [1, 32, 1]
000000 04 7a fc 3d 59 31 27 3e ac 6a ef 3d 00 00 00 00
       0.1232796 0.16327418 0.11690268 0.0
000010 00 00 00 00 00 00 00 00 00 61 87 be ae 0d 76 be
       0.0 0.0 -0.26441193 -0.24028656
000020 00 00 00 00 8b 13 2c 3e ac 8c 07 bd 00 00 00 00
       0.0 0.1680433 -0.03309314 0.0
000030 00 00 00 00 ae 0c ff bb 00 00 00 00 a9 8b 65 be
       0.0 -0.007783494 0.0 -0.22416557
000040 00 00 00 00 7e 3b 3e bd 94 de 06 3c 00 00 00 00
       0.0 -0.046443455 0.008231778 0.0
000050 72 63 48 be 00 00 00 00 ea e7 1f bc 9b be 93 3c
       -0.19569185 0.0 -0.009759882 0.018035224
000060 00 00 00 00 00 00 00 00 00 00 00 00 fa 26 21 3e
       0.0 0.0 0.0 0.15737525
000070 e4 68 4f bc 00 00 00 00 b5 e8 8b be b9 94 b8 bd
       -0.012659285 0.0 -0.2732598 -0.090127416

const_fold_opt__230 f4 [1, 32, 1]
000000 10 4e b0 bc 30 fd cb bc fe ce fc bc a3 0a b2 bc
       -0.021521598 -0.024901003 -0.03086042 -0.021733588
000010 61 cb d0 bb 4f 57 c8 bd 94 dd 39 bd b1 88 2c bd
       -0.006371901 -0.09782278 -0.04537733 -0.042122547
000020 07 6a 2d be ba f9 08 be 88 bf 5e bd 02 cb 17 be
       -0.16934977 -0.13376513 -0.054381877 -0.14823535
000030 46 d7 50 be 35 e5 3f be b8 7a 3c 3d ba 62 bb bd
       -0.2039462 -0.1873978 0.04601547 -0.0914969
000040 24 d7 a4 3a 8f af 3d be cb ff 72 3c 11 37 43 be
       0.0012576324 -0.18524002 0.014831494 -0.19063975
000050 d0 87 38 be bc a3 63 be b3 9e 43 be 97 99 15 bd
       -0.18020558 -0.22230428 -0.19103508 -0.036523428
000060 e6 50 14 be f8 72 46 be a2 36 c9 3d c4 34 da bc
       -0.14483985 -0.19379795 0.098248735 -0.026636489
000070 c3 20 30 bd 27 aa fd bc de 90 56 bd af 8a 6d be
       -0.042999994 -0.030964924 -0.05238425 -0.23197435

const_fold_opt__223 f4 [1, 32, 1]
000000 1b 05 99 bc 90 9a 29 be 09 ee 93 bc 64 ac 56 3c
       -0.018679192 -0.16562867 -0.01805784 0.013102625
000010 2f 6e 4e be d6 eb cb bd 4d 54 62 3d e8 d4 08 3c
       -0.20159219 -0.099570915 0.055256177 0.008351542
000020 b3 4c cc bb 25 58 4b be 5d 2d 6c 3e 3d 75 62 bc
       -0.006234729 -0.19857843 0.2306418 -0.013821897
000030 39 07 e1 bc bc 8f a7 bc 25 75 84 bd 00 00 00 00
       -0.027469264 -0.02045428 -0.06467656 0.0
000040 c2 0c 63 be b6 21 6e bc e6 71 f6 bc 5a cc 12 be
       -0.22172835 -0.0145344045 -0.030083608 -0.14335766
000050 1f e1 ec bd a4 b1 e0 bd e4 c3 13 bd 73 8a d2 3d
       -0.11566376 -0.10971382 -0.036075488 0.10280313
000060 99 4b fd 3d ed 46 26 bc b1 ac e4 3d a7 56 25 bd
       0.12367935 -0.010148746 0.11165751 -0.04036584
000070 97 05 45 bd 66 44 5a bd b6 95 60 bd e8 89 19 bd
       -0.048101034 -0.053287886 -0.054830275 -0.037485033
