models/cnn_3layers_79.30_20250408092059/model_250.onnx (onnx, 552442 bytes, 12 tensors)

sequential_1_1/dense_6_1/Cast/ReadVariableOp:0 f4 [64, 7]
-0.6971373 0.27976015 -1.0145886 -0.3846733 0.3177105 0.09882964 -0.7235964 -0.14913338
-0.8337744 0.2326338 -0.54918027 -0.686938 0.36146906 0.27352756 -0.6948858 -0.68406594
0.08670699 -0.6595786 0.33282772 0.051150605 0.095988765 -0.94439036 0.20134853 -0.8921074
0.18024123 0.2968257 -0.031583194 0.10218952 -1.0724697 0.2839193 -1.155568 0.24348378
0.29339263 0.14328189 0.12364225 0.19717325 -0.963641 0.19442683 0.18410277 0.18826555
-0.9320944 0.23784915 0.19676886 0.26830697 -0.14199932 0.27134082 0.25449106 -0.8949284
-0.344688 -0.5468213 0.43892092 -0.69458264 0.34100306 0.4174452 -0.27810088 -0.6337264
0.18444484 -0.7367627 0.19933523 0.22181265 -0.019957954 -0.7950573 0.16775188 0.34939444
-0.16531447 0.21456546 -0.74512154 -0.93097115 0.3260241 0.19587244 0.012570951 0.15472065
-0.57991415 -0.32910883 0.2189182 0.035527367 -1.181294 -0.3610608 -0.5394443 0.17095532
0.1875161 0.16009231 -1.2472683 0.20749599 0.23807731 -0.55133724 0.21533616 0.141459
-0.40303034 -0.286004 -0.33005604 -0.0059728613 -0.7696294 -0.43596706 -0.7892114 0.17663306
0.3210455 0.24235913 0.08896261 -0.48029462 0.31849998 -0.47239825 -0.36556396 -0.49858177
-0.17765872 -0.37945867 -0.8272817 0.2175441 0.19770421 0.002502465 -0.5105525 0.16415025
-1.076705 -0.12267573 0.21054222 0.22726299 0.2410283 -0.82655734 0.21938874 0.40879288
-0.30251253 0.31634665 -0.16948286 -0.84721935 0.21380706 -0.5183298 0.23269339 0.24497566
-0.3940154 0.2420113 -0.80707854 0.18568067 -0.92328376 0.28546017 0.28878805 0.24883543
0.2832411 -0.7256972 -0.17581613 -0.431756 -0.20934385 -0.903388 0.25630015 -0.540914
0.31537998 0.33374786 0.37567008 0.060251474 0.43249565 -0.6610013 -0.23802342 0.46877822
0.31046727 -0.78396463 0.12759669 0.13280383 0.14763533 0.11609528 -0.9649276 -0.79305446
0.12712695 -0.32769305 -0.5058891 -0.5889828 -0.797842 0.32969317 0.40508655 0.36612946
0.17090201 0.19018051 -0.046121556 0.16713007 -1.179365 0.17216025 -0.5268898 -0.39880702
-0.78551495 0.32033792 -0.14201175 0.34885973 -0.5949137 0.3659215 0.20037985 0.16292638
0.14374053 0.16783072 -1.0351236 0.097552754 -0.5045601 -0.5511884 -1.226056 0.2519306
0.2624411 0.017291863 0.27605635 0.27710354 -0.8345574 0.45998704 -0.54288185 0.07189224
0.50806385 0.20016086 -0.34380615 0.26193288 -0.8769813 0.2928284 0.27305546 -0.08017544
-0.82484615 0.2429295 -0.11056425 -1.2094291 0.14688322 -0.7877064 -0.012970066 0.2286557
0.23552042 0.1513486 -0.67667025 0.14553635 0.057797886 -0.3169411 -0.66777074 -0.3660985
-0.45501894 -0.42860392 -0.6251439 -0.4841878 0.3641378 0.38529202 0.33738625 -0.84555686
-0.33475608 0.22686724 0.26227698 0.20675378 -0.8992174 0.21127902 -0.96527773 0.09508704
-0.5481047 0.159582 0.25002947 -1.0145571 -0.21419607 0.17901267 -0.41603088 0.14940064
0.14928384 -0.53232783 -0.8120873 -0.10612331 -0.41052213 -0.40134585 0.3841372 0.026075654
00000000: 9777 32bf b93c 8f3e 0ade 81bf e6f3 c4be
00000010: f3aa a23e 3267 ca3d 9d3d 39bf 6cb6 18be
00000020: 3d72 55bf 8e37 6e3e 1497 0cbf 2bdb 2fbf
00000030: 7912 b93e ce0b 8c3e 09e4 31bf f21e 2fbf
00000040: 6f93 b13d 25da 28bf 6568 aa3e 4c83 513d
00000050: c295 c43d 91c3 71bf 4f2e 4e3e 2761 64bf
00000060: 2891 383e 8af9 973e 615d 01bd bd48 d13d
00000070: b046 89bf df5d 913e a7e9 93bf d053 793e
00000080: 8f37 963e 7db8 123e 2638 fd3d c9e7 493e
00000090: 2db1 76bf d417 473e 7085 3c3e afc8 403e
000000a0: bd9d 6ebf ba8e 733e c77d 493e 885f 893e
000000b0: 4568 11be 2fed 8a3e a74c 823e 071a 65bf
000000c0: f27a b0be 7bfc 0bbf 3eba e03e 2bd0 31bf
000000d0: f497 ae3e 61bb d53e 3d63 8ebe e53b 22bf
000000e0: 1cdf 3c3e 7b9c 3cbf 891e 4c3e db22 633e
000000f0: dd7e a3bc e088 4bbf 26c7 2b3e d4e3 b23e
00000100: 3248 29be 0cb7 5b3e 49c0 3ebf 2054 6ebf
00000110: a1ec a63e c992 483e 64f6 4d3c 176f 1e3e
00000120: 4175 14bf f480 a8be 182c 603e 2585 113d
00000130: a434 97bf f6dc b8be 0619 0abf e90e 2f3e
00000140: 3804 403e 3def 233e 7da6 9fbf d479 543e
00000150: 8aca 733e 7024 0dbf 1581 5c3e a1da 103e
00000160: fe59 cebe 1e6f 92be 1bfd a8be feb7 c3bb
00000170: 6f06 45bf 1337 dfbe c209 4abf 4cdf 343e
00000180: 1360 a43e fe2c 783e 0732 b63d 2de9 f5be
00000190: 6e12 a33e 2fde f1be 332b bbbe 1c46 ffbe
000001a0: 2bec 35be 6848 c2be bcc8 53bf e1c3 5e3e
000001b0: f972 4a3e 6500 243b 92b3 02bf 0117 283e
000001c0: 78d1 89bf 6a3d fbbd 6198 573e a1b7 683e
000001d0: 1fd0 763e 4399 53bf 71a7 603e 4d4d d13e
000001e0: ece2 9abe 30f8 a13e ea8c 2dbe 5ee3 58bf
000001f0: 3df0 5a3e 43b1 04bf 2d47 6e3e e6da 7a3e
00000200: 63bc c9be cfd1 773e b39c 4ebf 1323 3e3e
00000210: 535c 6cbf d627 923e 07dc 933e b7ce 7e3e
00000220: fa04 913e 4bc7 39bf 2509 34be 1f0f ddbe
00000230: 3c5e 56be 7044 67bf c639 833e 5779 0abf
00000240: 7c79 a13e 00e1 aa3e d457 c03e 40ca 763d
00000250: 1270 dd3e 6237 29bf 69bc 73be b303 f03e
00000260: 91f5 9e3e e8b1 48bf b5a8 023e bafd 073e
00000270: b72d 173e 5dc3 ed3d 7f05 77bf 9e05 4bbf
00000280: 912d 023e 62c7 a7be f381 01bf 94c7 16bf
00000290: 603f 4cbf 8bcd a83e 8167 cf3e 5275 bb3e
000002a0: f000 2f3e aebe 423e f5e9 3cbd 2524 2b3e
000002b0: 6ff5 96bf c74a 303e 40e2 06bf 6f30 ccbe
000002c0: 8217 49bf 5503 a43e 876b 11be be9d b23e
000002d0: 444c 18bf 105a bb3e 6030 4d3e 2cd6 263e
000002e0: b830 133e d1db 2b3e ee7e 84bf bdc9 c73d
000002f0: da2a 01bf af1a 0dbf 67ef 9cbf 0cfd 803e
00000300: ae5e 863e aaa7 8d3c 4257 8d3e 84e0 8d3e
00000310: 8ea5 55bf 6c83 eb3e 4efa 0abf 3d3c 933d
00000320: 7910 023f f8f6 4c3e 5c07 b0be 111c 863e
00000330: d981 60bf 9bed 953e edcd 8b3e 0533 a4bd
00000340: 1e29 53bf 83c2 783e 826f e2bd 93ce 9abf
00000350: 8e68 163e 20a7 49bf 6680 54bc b824 6a3e
00000360: 442c 713e 21fb 1a3e 433a 2dbf 7b07 153e
00000370: 7abd 6c3d 1b46 a2be 06f3 2abf 4371 bbbe
00000380: 3ef8 e8be f971 dbbe 6e09 20bf 77e7 f7be
00000390: 4570 ba3e ff44 c53e e4bd ac3e 6a76 58bf
000003a0: 2665 abbe e34f 683e 2b49 863e 43b7 533e
000003b0: 1d33 66bf 8759 583e 711c 77bf febc c23d
000003c0: 9750 0cbf 7769 233e dd03 803e 02dd 81bf
000003d0: 3756 5bbe 194f 373e 0002 d5be 7bfc 183e
000003e0: dddd 183e a346 08bf f4e4 4fbf 2e57 d9bd
000003f0: f52f d2be 347d cdbe a2ad c43e 9c9c d53c

sequential_1_1/dense_6_1/BiasAdd/ReadVariableOp:0 f4 [7]
-0.21740827 0.4776312 -0.7616643 -0.25298128 0.24109116 0.22135216 0.25034577
00000000: 46a0 5ebe 148c f43e 6efc 42bf c386 81be
00000010: 9ae0 763e 24aa 623e 522d 803e

sequential_1_1/dense_5_1/Cast/ReadVariableOp:0 f4 [64, 64]
-0.46236858 0.1976684 -0.106714316 0.022620538 0.051437553 0.19398 -0.05298134 -0.2805855
0.49159816 0.06728252 -0.4189851 0.55352867 0.12126737 -0.026706247 0.05947425 0.4357474
0.5119273 -0.005308279 -0.00096369744 -0.016850628 0.054265663 -0.44852325 0.25627312 0.02456244
0.055433236 0.030650884 0.09892581 0.6524283 -0.504342 0.5960997 -0.007474543 0.004306365
-0.04004912 0.5344314 0.033055943 0.21731003 0.20624138 -0.02421578 -0.33654916 0.07195361
0.37420437 -0.07482578 -0.07508503 -0.07326728 -0.30257487 -0.33563554 0.13022925 0.019342491
-0.07271959 0.018471424 0.014581733 0.021534257 0.03811049 -0.06975177 -0.065409504 0.04086043
-0.40971088 0.5100057 -0.28835514 -0.64382714 0.49389178 -0.092960544 0.642964 0.09209547
0.11684344 0.0525199 0.4812244 0.4969861 0.33841178 0.11295308 0.061718207 -0.055872336
0.1177265 0.034783494 -0.005477295 0.052904062 -0.6185654 0.606643 -0.48557928 0.103076756
0.080075786 -0.5374266 -0.1809209 -0.2401362 0.6528836 0.049398363 0.0301483 0.6443907
-0.07520038 0.30102566 -0.18778063 -0.13821317 0.111871935 0.028275324 0.36585343 -0.623576
0.59638804 0.1564349 0.0216405 -0.47956237 0.1810194 0.86606234 -0.040804222 0.07581213
-0.026421865 -0.09578619 -0.28486073 -0.07112188 0.14346692 -0.06510302 0.02445488 -0.5435254
-0.04394187 -0.50190455 0.7752654 -0.77943736 -0.19089915 -0.020870589 -0.22111179 -0.45994914
-0.08456257 0.009579683 0.10057995 -0.0496298 0.0720034 -0.34567308 -0.16224614 -0.1529583
-0.8913301 0.18639651 -0.023218252 0.020187048 -0.076432936 0.5961979 0.006032359 -0.17941989
0.7184976 -0.013651476 -0.42724776 0.6626614 -0.0016263159 0.07546904 0.050794397 0.5377028
0.1930394 0.017302964 0.010004646 -0.007712879 -0.036270298 -0.5591814 0.3498337 0.013391322
0.0578362 0.12723087 0.0101186065 0.48526877 -0.38317412 0.6079582 0.033832543 0.011923033
0.05867623 0.36389327 0.067602776 0.29349235 0.19100876 -0.019428171 -0.34773466 0.0008976752
0.23445627 -0.033799108 -0.122215785 0.013660083 -0.77021503 -0.23233375 0.062907994 0.022676626
-0.04158966 -0.014172445 0.039029613 0.1290883 -0.09444526 -0.12341028 -0.079389155 -0.028697075
-0.49113375 0.4969558 -0.5881481 -0.683709 0.6536853 -0.075128354 0.2169893 -0.21157792
-0.74482083 -0.2200946 -0.29679173 -0.64442927 -0.6466092 0.6475211 -0.057107218 -0.67044115
0.53281474 0.06958516 0.06098967 0.0641208 0.63729703 -0.0052442243 0.312154 -0.026355444
-0.032388028 0.15542679 -0.03847449 0.15352459 0.18615738 -0.52446437 0.124688976 -0.26796415
-0.13176386 0.09526094 0.03308047 -0.07328485 -0.67801714 0.25962433 -0.30481246 0.66788024
-0.44737318 -0.05540512 -0.31989986 0.488855 0.061079793 -0.41371801 0.17996721 -0.030056303
-0.24499616 -0.03626746 0.040877353 -0.021056617 -0.7753991 0.2611973 0.42877826 0.1914656
-0.027630089 0.5462962 -0.46364358 0.55990285 -0.051360305 -0.008259964 0.36408558 0.8833067
0.12658721 -0.32658166 -0.08643444 0.04491763 0.5926664 -0.09540017 -0.09923616 -0.68474823
00000000: 93bb ecbe 9669 4a3e 098d dabd b54e b93c
00000010: 2fb0 523d b1a2 463e f602 59bd e7a8 8fbe
00000020: c1b2 fb3e 6bcb 893d 3785 d6be 0eb4 0d3f
00000030: 075b f83d 0fc7 dabc 459b 733d 491a df3e
00000040: ab0d 033f 12f1 adbb a4a0 7cba 540a 8abc
00000050: ac45 5e3d d7a4 e5be 3b36 833e 2c37 c93c
00000060: f60d 633d 9017 fb3c 9d99 ca3d 8b05 273f
00000070: 8f1c 01bf fd99 183f 03ed f4bb 681c 8d3b
00000080: 8c0a 24bd 7fd0 083f ab65 073d 8586 5e3e
00000090: f130 533e 2c60 c6bc 2c50 acbe 6a5c 933d
000000a0: b797 bf3e 423e 99bd 2ec6 99bd 280d 96bd
000000b0: 18eb 9abe 6cd8 abbe d15a 053e 2574 9e3c
000000c0: 02ee 94bd 6251 973c 39e8 6e3c 9c68 b03c
000000d0: bf19 1c3d 04da 8ebd 6bf5 85bd 445d 273d
000000e0: a0c5 d1be bc8f 023f 49a3 93be dbd1 24bf
000000f0: 62df fc3e 1962 bebd 4a99 243f 8d9c bc3d
00000100: 9d4b ef3d 1b1f 573d 0b63 f63e f674 fe3e
00000110: 4f44 ad3e f253 e73d 3bcc 7c3d 64da 64bd
00000120: 971a f13d 2379 0e3d e17a b3bb eeb1 583d
00000130: 4d5a 1ebf f54c 1b3f d99d f8be e819 d33d
00000140: c6fe a33d ca94 09bf 5443 39be 44e6 75be
00000150: 6123 273f f055 4a3d 91f9 f63c caf6 243f
00000160: a802 9abd 0920 9a3e 9149 40be c187 0dbe
00000170: 1d1d e53d a7a1 e73c 2451 bb3e ada2 1fbf
00000180: e3ac 183f 7830 203e 6b47 b13c 3389 f5be
00000190: 265d 393e 43b6 5d3f 5422 27bd 6443 9b3d
000001a0: ab72 d8bc 8d2b c4bd 44d9 91be 59a8 91bd
000001b0: fee8 123e bb54 85bd 9a55 c83c 7b24 0bbf
000001c0: 64fc 33bd d17c 00bf cb77 463f 3589 47bf
000001d0: 117b 43be ccf8 aabc 216b 62be 747e ebbe
000001e0: 242f adbd 1af4 1c3c dcfc cd3d 9e48 4bbd
000001f0: 8576 933d 10fc b0be da23 26be 1aa1 1cbe
00000200: 362e 64bf bade 3e3e 3434 bebc 4f5f a53c
00000210: df88 9cbd 6da0 183f 18ab c53b d9b9 37be
00000220: 75ef 373f 71aa 5fbc 38c0 dabe 2da4 293f
00000230: 1b2a d5ba 838f 9a3d c90d 503d e4a6 093f
00000240: 1fac 453e f2be 8d3c 87ea 233c 52bc fcbb
00000250: 2a90 14bd 8326 0fbf 671d b33e 4767 5b3c
00000260: a7e5 6c3d cf48 023e 83c8 253c 2675 f83e
00000270: 662f c4be 26a3 1b3f fe93 0a3d d358 433c
00000280: 7d56 703d 3850 ba3e 5373 8a3d a144 963e
00000290: cd97 433e d427 9fbc 470a b2be f751 6b3a
000002a0: 4e15 703e ef70 0abd 454c fabd 8ace 5f3c
000002b0: d02c 45bf e6e8 6dbe e8d5 803d 55c4 b93c
000002c0: eb59 2abd 8b33 68bc 84dd 1f3d b92f 043e
000002d0: 846c c1bd 87be fcbd c896 a2bd 2116 ebbc
000002e0: e275 fbbe fe70 fe3e e090 16bf 8e07 2fbf
000002f0: eb57 273f e5dc 99bd 7132 5e3e e2a7 58be
00000300: 94ac 3ebf 7b60 61be 16f5 97be 51f9 24bf
00000310: 2e88 25bf f1c3 253f 42e9 69bd 08a2 2bbf
00000320: 8c66 083f aa82 8e3d 4ed0 793d c451 833d
00000330: e625 233f bed7 abbb a6d2 9f3e 5fe7 d7bc
00000340: 4fa9 04bd 3328 1f3e 6d97 1dbd 8d35 1d3e
00000350: 0aa0 3e3e 4c43 06bf ef5c ff3d 9932 89be
00000360: 1bed 06be 2b18 c33d 637f 073d 5e16 96bd
00000370: 8892 2dbf 7bed 843e 6110 9cbe 33fa 2a3f
00000380: 190e e5be 7bf0 62bd eac9 a3be 344b fa3e
00000390: ce2e 7a3d d9d2 d3be 5349 383e a338 f6bc
000003a0: 46e0 7abe 308d 14bd 036f 273d ed7e acbc
000003b0: 8e80 46bf a7bb 853e d388 db3e 8f0f 443e
000003c0: 7f58 e2bc 11da 0b3f b162 edbe cb55 0f3f
000003d0: 2f5f 52bd cd54 07bc 6d69 ba3e 6320 623f
000003e0: 14a0 013e b635 a7be 8a04 b1bd 8cfb 373d
000003f0: fcb8 173f 2a61 c3bd 543c cbbd a94b 2fbf

sequential_1_1/dense_5_1/BiasAdd/ReadVariableOp:0 f4 [64]
0.26060817 0.039844487 -0.043083917 0.41451806 0.44239604 0.030503249 0.108034074 0.31241754
0.010208699 0.034342524 0.22958022 0.039899666 -0.20048122 0.14310902 -0.118518315 0.093942836
0.08390265 -0.11154782 0.06313942 0.033639785 -0.045495145 0.116981655 -0.029533247 0.10358751
0.042346828 -0.050831087 0.04914848 0.07413448 0.28671086 -0.044032063 0.019959597 -0.08065708
0.12183637 0.11182814 0.24119323 -0.0675916 -0.11116219 0.40304202 0.13636012 0.013871462
0.1648394 0.18008742 -0.15004233 0.23002206 0.24215639 0.08763163 0.04820373 -0.1814387
0.22700389 -0.060369547 0.23408939 -0.15660904 0.16052082 0.21778639 -0.13383782 -0.00074621855
0.0778268 -0.05105431 0.084413074 0.16815917 -0.020768348 0.19982722 0.11492266 0.17449977
00000000: 6f6e 853e f933 233d c378 30bd b63b d43e
00000010: bc81 e23e f3e1 f93c f840 dd3d 31f5 9f3e
00000020: 6342 273c bfaa 0c3d 1417 6b3e d56d 233d
00000030: f34a 4dbe 2c8b 123e bbb9 f2bd 1a65 c03d
00000040: 27d5 ab3d 2f73 e4bd 3d4f 813d dfc9 093d
00000050: 1e59 3abd 1494 ef3d b5ef f1bc b025 d43d
00000060: de73 2d3d 4234 50bd eb4f 493d d1d3 973d
00000070: c4cb 923e f75a 34bd 4f82 a33c 8a2f a5bd
00000080: 5985 f93d 2706 e53d 5cfb 763e 776d 8abd
00000090: 01a9 e3bd 865b ce3e fda1 0b3e 2145 633c
000000a0: a9cb 283e d668 383e b2a4 19be e78a 6b3e
000000b0: d8f7 773e 3678 b33d 4671 453d 11cb 39be
000000c0: b573 683e 0f46 77bd 21b5 6f3e 1f5e 20be
000000d0: 925f 243e 6503 5f3e c80c 09be e19d 43ba
000000e0: a863 9f3d 531e 51bd c3e0 ac3d eb31 2c3e
000000f0: 6222 aabc 829f 4c3e 925c eb3d 11b0 323e

sequential_1_1/dense_4_1/Cast/ReadVariableOp:0 f4 [512, 64]
-0.0014855122 -0.27033004 0.07463232 0.033717655 0.1136714 -0.119026 -0.09955345 0.008427988
-0.09934129 0.30990693 -0.03897879 -0.020613715 0.07561482 -0.059217203 0.047728207 -0.039481305
0.2917965 -0.24564478 -0.11022734 0.086748086 -0.07864608 -0.19349252 -0.11913205 -0.045836072
0.05324955 -0.06880072 0.40838143 -0.16911025 0.053967692 0.09784412 0.27312735 -0.15002957
-0.27907556 -0.029171022 0.02906692 0.20797768 0.0703058 -0.022494247 -0.059171528 -0.08715302
-0.06627211 -0.10794416 -0.13893463 0.013001123 0.07518223 0.08083459 0.0042542354 -0.1138629
-0.10688632 0.00371835 -0.2500936 -0.11304842 -0.09420746 0.031534404 -0.027984442 0.0018946255
-0.24384558 0.30573237 0.034474693 -0.02349501 -0.039624516 0.060576037 -0.091605216 0.07420215
0.056849163 -0.051426265 0.03655599 -0.087186575 0.058910154 -0.019335471 -0.07303415 0.06694408
-0.025687376 0.060971748 0.05160395 0.03346935 -0.039424427 0.05758609 -0.045649808 0.0011961386
0.089635134 -0.07937143 -0.044847142 -0.035516873 -0.033519246 -0.093382955 0.0033137486 0.060838323
-0.050745897 0.038692757 -0.028952293 0.01445663 0.03904131 -0.14748028 0.04189447 -0.14203201
-0.048753884 0.0002932176 0.09596272 -0.0365229 0.03739798 0.1416158 -0.0025830814 0.011708647
-0.076885 0.029484868 -0.0872706 -0.02482754 -0.03443695 0.012613156 -0.08794465 -0.041120782
0.018211983 -0.03554278 0.08326364 -0.032101378 0.09805907 0.05717586 -0.016633105 -0.08693304
0.10347681 0.004907966 -0.019144207 -0.09184682 -0.07053867 0.039436325 0.07514894 0.0097320555
0.00095044327 0.071470164 -0.06649162 0.01738075 -0.053870574 0.076872766 0.07530218 0.09925479
-0.04248536 0.08218155 -0.06668979 -0.08116652 -0.043621466 0.031280264 -0.056195118 0.0036757216
0.009040655 -0.023649186 -0.09600982 -0.06855373 -0.047444426 0.077375904 0.04938008 -0.053951655
0.05229421 0.120035194 0.0868652 -0.0086800065 0.06919584 0.044208765 -0.055396207 -0.048875988
-0.0746546 0.008777991 -0.08258104 -0.040431 0.07442499 -0.06404462 -0.083762676 0.062490948
-0.07342769 -0.084001146 -0.056641843 -0.05064265 -0.04671596 -0.062426873 0.071700975 -0.039993633
-0.05545257 0.04777634 0.023326622 -0.057123147 -0.037743345 -0.08791675 0.080085635 0.0026102513
-0.03248188 -0.065021366 -0.10086073 -0.06535585 0.055298403 0.013082929 -0.0109912455 0.045313366
0.12738435 0.09934747 0.044303413 0.10549151 -0.13499127 -0.05501836 0.07101032 -0.03083965
-0.0623366 -0.3077886 0.05634101 -0.08944755 -0.055565823 -0.06942785 0.07322519 -0.01913254
-0.09058583 0.08676614 -0.09945804 0.016933862 -0.10132399 0.067324765 -0.08781531 0.05297302
0.034067336 -0.098037064 0.05047431 0.16951582 -0.016770057 -0.05825177 -0.17437011 0.04909226
0.14178008 -0.010318636 -0.17991489 -0.09948264 -0.00012295139 0.17418757 -0.017827747 -0.056338686
0.19994387 -0.11567138 -0.12769146 -0.031169323 -0.23755707 -0.1010679 -0.07200186 0.06261132
0.04105822 0.011183722 -0.00768865 -0.09915959 0.018489845 -0.07477637 -0.030397337 0.047905598
0.34122843 -0.16615368 -0.102897 -0.07831712 -0.105175205 -0.082695246 0.048572004 -0.086018555
00000000: 85b5 c2ba b368 8abe d4d8 983d 861b 0a3d
00000010: 8dcc e83d e7c3 f3bd aee2 cbbd 8b15 0a3c
00000020: 7273 cbbd 1fac 9e3e 39a8 1fbd 18de a8bc
00000030: f1db 9a3d bd8d 72bd a77e 433d 26b7 21bd
00000040: 5a66 953e 4e8a 7bbe dfbe e1bd fba8 b13d
00000050: 3211 a1bd e722 46be 81fb f3bd 9bbe 3bbd
00000060: 331c 5a3d 64e7 8cbd 5f17 d13e 3d2b 2dbe
00000070: 3a0d 5d3d 7f62 c83d 59d7 8b3e 5aa1 19be
00000080: fee2 8ebe 11f8 eebc c01d ee3c 1af8 543e
00000090: 7dfc 8f3d db45 b8bc d85d 72bd 487d b2bd
000000a0: acb9 87bd d411 ddbd e144 0ebe aa02 553c
000000b0: 24f9 993d 9b8c a53d 1d67 8b3b f430 e9bd
000000c0: 37e7 dabd 90af 733b 450c 80be ee85 e7bd
000000d0: d7ef c0bd 382a 013d a13f e5bc 1555 f83a
000000e0: a8b2 79be f488 9c3e 5635 0d3d 9b78 c0bc
000000f0: 514d 22bd 941e 783d 849b bbbd 4cf7 973d
00000100: abda 683d 59a4 52bd bcbb 153d e08e b2bd
00000110: c64b 713d 6c65 9ebc ee92 95bd fa19 893d
00000120: 556e d2bc 83bd 793d aa5e 533d 2817 093d
00000130: 827b 21bd 64df 6b3d 4bfb 3abd c0c7 9c3a
00000140: a092 b73d 7d8d a2bd a3b1 37bd 247a 11bd
00000150: 7a4b 09bd 903f bfbd 7a2b 593b 9b31 793d
00000160: eeda 4fbd 4c7c 1e3d 5c2d edbc 80db 6c3c
00000170: c8e9 1f3d 1205 17be 8999 2b3d d770 11be
00000180: 27b2 47bd 00bb 9939 1a88 c43d 0999 15bd
00000190: a02e 193d bb03 113e ea48 29bb a0d5 3f3c
000001a0: e275 9dbd 408a f13c eeba b2bd 2063 cbbc
000001b0: c20d 0dbd 69a7 4e3c 531c b4bd 446e 28bd
000001c0: 4c31 953c 4e95 11bd 2186 aa3d bc7c 03bd
000001d0: 32d3 c83d 3c31 6a3d 2642 88bc f309 b2bd
000001e0: a6eb d33d 01d3 a03b 50d4 9cbc 301a bcbd
000001f0: 9476 90bd fc87 213d b0e7 993d 3373 1f3c
00000200: 2b27 793a f35e 923d c22c 88bd 1362 8e3c
00000210: 64a7 5cbd 786f 9d3d 0838 9a3d 1846 cb3d
00000220: 2105 2ebd cd4e a83d a894 88bd a23a a6bd
00000230: 6cac 32bd bc1f 003d da2c 66bd 60e4 703b
00000240: 411f 143c f0bb c1bc cca0 c4bd e665 8cbd
00000250: 1655 42bd 4277 9e3d c442 4a3d 69fc 5cbd
00000260: 7432 563d 03d5 f53d 62e6 b13d 9636 0ebc
00000270: 8cb6 8d3d 4014 353d 22e7 62bd 3032 48bd
00000280: 83e4 98bd 90d1 0f3c 4020 a9bd fa9a 25bd
00000290: 216c 983d d329 83bd c48b abbd 82f6 7f3d
000002a0: 4261 96bd cb08 acbd 4701 68bd ab6e 4fbd
000002b0: 3c59 3fbd 52b3 7fbd f6d7 923d 5dd0 23bd
000002c0: 3c22 63bd 20b1 433d 7917 bf3c f6f9 69bd
000002d0: c498 1abd b20d b4bd f003 a43d c010 2b3b
000002e0: b80b 05bd ec29 85bd 1290 cebd 4ad9 85bd
000002f0: 9480 623d c859 563c a014 34bc 829a 393d
00000300: 0b71 023e b076 cb3d 7f77 353d ef0b d83d
00000310: 273b 0abe ef5a 61bd dc6d 913d 6fa3 fcbc
00000320: aa54 7fbd 7896 9dbe d5c5 663d 4730 b7bd
00000330: fd98 63bd 3030 8ebd 17f7 953d d8bb 9cbc
00000340: 1085 b9bd 72b2 b13d a8b0 cbbd e2b8 8a3c
00000350: f482 cfbd 91e1 893d 83d8 b3bd 3dfa 583d
00000360: 318a 0b3d a8c7 c8bd 26be 4e3d 8e95 2d3e
00000370: 5c61 89bc 6899 6ebd 148e 32be f714 493d
00000380: cc2e 113e 7f0f 29bc 9c3b 38be 8ebd cbbd
00000390: 83ec 00b9 3a5e 323e 7f0b 92bc 65c3 66bd
000003a0: 16be 4c3e 1ee5 ecbd 8dc1 02be cf56 ffbc
000003b0: 2942 73be b0fc cebd b675 93bd 5d3a 803d
000003c0: aa2c 283d ee3b 373c 12f1 fbbb 2f14 cbbd
000003d0: 0478 973c 5a24 99bd d603 f9bc a938 443d
000003e0: 7eb5 ae3e 3124 2abe aabb d2bd ba64 a0bd
000003f0: 1966 d7bd 205c a9bd 70f3 463d 7f2a b0bd

sequential_1_1/dense_4_1/BiasAdd/ReadVariableOp:0 f4 [64]
-0.022950755 -0.020008195 -0.06399112 -0.0063824197 -0.06845219 -0.027104279 0.010267586 -0.018483264
-0.0017648474 -0.075304836 -0.03251797 -0.027037462 -0.011799842 -0.042663183 -0.010157135 -0.051222086
-0.08261539 -0.030350206 -0.012126721 -0.0070181293 -0.02619639 0.019772425 -0.08484055 -0.028578028
-0.034761254 -0.058611177 -0.12391358 0.025207754 -0.07669893 -0.10741124 0.09194002 -0.13455215
0.031839855 -0.021273933 -0.05672869 -0.017090837 -0.0905005 -0.10486977 0.012670079 -0.009051194
0.050418645 -0.045071945 0.03367254 -0.042228732 -0.013368598 -0.029559912 -0.09083312 -0.038943496
-0.17828758 -0.06789872 0.0242606 -0.022598077 -0.030681439 -0.015525813 0.0034407207 -0.03662196
-0.026248163 -0.08219498 -0.034025494 -0.056211576 -0.028878277 -0.01836276 -0.0120217465 0.017134104
00000000: 3903 bcbc 3ae8 a3bc c70d 83bd 9e23 d1bb
00000010: a930 8cbd cb09 debc 6139 283c 376a 97bc
00000020: 7452 e7ba 6c39 9abd 9031 05bd ab7d ddbc
00000030: 2054 41bc 97bf 2ebd 1d6a 26bc 40ce 51bd
00000040: 4232 a9bd ffa0 f8bc 28af 46bc 56f8 e5bb
00000050: d099 d6bc c8f9 a13c e2c0 adbd 781c eabc
00000060: d161 0ebd 4612 70bd 67c6 fdbd 7e80 ce3c
00000070: 5414 9dbd 6dfa dbbd 0d4b bc3d 0ac8 09be
00000080: 826a 023d ac46 aebc 585c 68bd 1502 8cbc
00000090: 5358 b9bd f6c5 d6bd 2a96 4f3c 764b 14bc
000000a0: c883 4e3d 5c9d 38bd 38ec 093d 09f8 2cbd
000000b0: f707 5bbc a127 f2bc b706 babd 3783 1fbd
000000c0: 0591 36be 7c0e 8bbd 2abe c63c 9a1f b9bc
000000d0: a457 fbbc fb5f 7ebc b77d 613b e900 16bd
000000e0: 6306 d7bc d755 a8bd 515e 0bbd 1c3e 66bd
000000f0: 2392 ecbc 806d 96bc dcf6 44bc d25c 8c3c

sequential_1_1/conv1d_2_1/convolution/ExpandDims_1:0 f4 [128, 128, 1, 3]
-0.026883598 0.05611501 0.06912955 0.05459486 -0.06428188 0.07401984 -0.080832705 -0.03310715
-0.116242915 -0.07498558 -0.040159546 -0.005625817 -0.020817928 -0.06740404 0.0022866353 0.1391323
-0.2942102 -0.07380945 -0.033603534 0.037671797 -0.030874062 -0.31689695 -0.008309584 0.24736187
0.031181077 -0.031119032 -0.016800959 0.04474298 0.04730988 0.08236655 0.23165992 -0.22824574
-0.27841562 0.08547021 0.021116853 0.06452299 0.4841699 0.23491295 -0.7211223 -0.07652044
0.005715697 0.031937767 0.028559819 0.030464973 0.06479112 0.040232148 -0.054795533 0.007888481
-0.0735272 -0.035112076 -0.014380738 0.0034664304 -0.08359185 0.07667124 -0.08730046 0.028013846
-0.033298355 0.037697274 -0.063033864 0.076950446 0.02390242 -0.005514603 0.0517518 0.009473348
-0.034315437 0.009339191 -0.07318883 -0.0327579 -0.021693528 -0.09519795 -0.066079244 -0.07578681
-0.04604812 -0.013767253 -0.062746644 0.007862785 0.06098081 0.049647495 0.24737924 -0.28015354
0.035453107 0.042064458 0.073411204 0.018763987 -0.090856075 0.04718083 0.010621446 -0.070770234
0.06633099 0.07811261 0.056774847 0.008735314 -0.08773075 0.018744834 0.08095627 -0.035649765
-0.005241734 -0.0593104 -0.021406092 -0.05405413 -0.041387595 -0.03472262 0.04008551 -0.04913566
0.04672667 0.07745674 -0.044289414 -0.0061554112 0.20727593 -0.44478393 -0.62616897 0.05837658
-0.030484244 -0.044884875 0.09523498 0.062064257 0.023757469 -0.011169438 -0.0572857 0.048537437
0.22817129 -0.051555187 0.06188749 0.014388956 0.0060858577 -0.039286025 0.24210392 -0.059410434
0.014132151 -0.012697473 0.013939694 0.039785184 0.023041852 0.08836236 -0.05269559 0.056039564
0.035876684 -0.07759964 0.12345162 0.049288902 0.06616623 0.25085428 0.04971666 -0.07463859
0.05489362 -0.031866092 0.035183996 -0.04276245 -0.076548316 -0.009404002 0.027410455 0.014782988
-0.06692003 0.018094057 0.057849985 -0.0025110021 0.0002584864 0.06759899 0.07079947 0.072316654
-0.22720647 0.0909013 0.67403215 0.19502144 -0.5799094 0.0694608 -0.015987583 0.08575905
0.035123955 -0.06058332 0.030574603 -0.01845096 0.05827696 -0.04878725 0.040964074 -0.024581455
0.05230046 0.0030967572 -0.020131858 -0.024449011 -0.086842045 -0.050050557 0.013226651 -0.061220273
0.014845784 0.072770685 0.024577752 -0.2998993 0.14042093 0.20262206 0.06005998 0.024445273
0.22433895 -0.012518702 -0.018760758 0.028717577 -0.042654697 -0.0840445 -0.007506516 -0.07119624
-0.013878451 0.0053880513 -0.015177019 0.073668666 0.072194375 -0.21204251 0.06383575 -0.044791523
0.00887978 0.020192219 0.2547012 -0.1362982 0.0027603048 -0.039873276 -0.025080074 -0.006425091
0.031411007 -0.04218481 0.032937605 0.067391954 -0.0073078168 -0.080697216 -0.076676495 -0.085439295
-0.055198148 -0.07200353 -0.038449727 0.052853364 0.31884253 0.16995893 -0.26702896 0.0011664107
0.062362485 0.03180521 0.012270756 -0.053104248 0.011386603 -0.021596722 -0.06755768 -0.057539824
0.06378179 -0.08361924 0.032089427 -0.0023280396 0.022365332 -0.0020191483 0.08153745 -0.054699153
-0.015476687 0.07650567 0.08567167 0.034426786 0.042773522 -0.025864683 0.057072744 -0.16716027
00000000: fe3a dcbc dad8 653d cb93 8d3d dc9e 5f3d
00000010: 38a6 83bd b797 973d 9e8b a5bd 5d9b 07bd
00000020: c410 eebd 0a92 99bd 567e 24bd c658 b8bb
00000030: 5c8a aabc 210b 8abd 60db 153b b378 0e3e
00000040: b8a2 96be 6929 97bd dca3 09bd be4d 1a3d
00000050: 9aeb fcbc 5140 a2be ec24 08bc 6e4c 7d3e
00000060: 756f ff3c 57ed febc 2aa2 89bc 6a44 373d
00000070: 01c8 413d cbaf a83d 4238 6d3e 40b9 69be
00000080: 7e8c 8ebe 010b af3d 40fd ac3c a124 843d
00000090: 1ee5 f73e 058d 703e 799b 38bf c0b6 9cbd
000000a0: be4a bb3b 2dd1 023d 48f6 e93c ae91 f93c
000000b0: 35b1 843d 77ca 243d 4871 60bd b03e 013c
000000c0: 6e95 96bd aed1 0fbd 309d 6bbc 0d2d 633b
000000d0: 3432 abbd d005 9d3d 95ca b2bd 4b7d e53c
000000e0: db63 08bd 7568 1a3d e617 81bd 3298 9d3d
000000f0: 02cf c33c d8b3 b4bb b2f9 533d 1a36 1b3c
00000100: 588e 0cbd 6803 193c 06e4 95bd 262d 06bd
00000110: a0b6 b1bc 25f7 c2bd 8e54 87bd 1d36 9bbd
00000120: f49c 3cbd 0b90 61bc 5081 80bd e9d2 003c
00000130: 04c7 793d 2c5b 4b3d fc50 7d3e 4970 8fbe
00000140: 4737 113d c84b 2c3d 9d58 963d efb6 993c
00000150: c012 babd b040 413d 9305 2e3c fcef 90bd
00000160: 8bd8 873d 81f9 9f3d be8c 683d 901e 0f3c
00000170: 2eac b3bd c48e 993c 67cc a53d 7d05 12bd
00000180: dac2 abbb 76ef 72bd d45b afbc dd67 5dbd
00000190: 0a86 29bd 4e39 0ebd b430 243d 7942 49bd
000001a0: 7764 3f3d a4a1 9e3d d168 35bd 55b3 c9bb
000001b0: 2440 543e b8ba e3be 9c4c 20bf 481c 6f3d
000001c0: 18ba f9bc 34d9 37bd 8f0a c33d 1737 7e3d
000001d0: 069f c23c 0500 37bc 69a4 6abd 31cf 463d
000001e0: bca5 693e 882b 53bd bd7d 7d3d a8bf 6b3c
000001f0: e06b c73b 62ea 20bd 17ea 773e 5b58 73bd
00000200: 8a8a 673c 1009 50bc 5063 643c caf5 223d
00000210: 44c2 bc3c 53f7 b43d 55d7 57bd be89 653d
00000220: 6ef3 123d 8fec 9ebd 34d4 fc3d 29e3 493d
00000230: 2982 873d f96f 803e b2a3 4b3d 1edc 98bd
00000240: 22d8 603d 0586 02bd 181d 103d ae27 2fbd
00000250: 5dc5 9cbd 3e13 1abc e48b e03c 5834 723c
00000260: 5e0d 89bd fd39 943c 1bf4 6c3d a08f 24bb
00000270: 7585 8739 5771 8a3d 50ff 903d c11a 943d
00000280: d0a8 68be 762a ba3d 5f8d 2c3f b3b3 473e
00000290: f174 14bf 7741 8e3d 64f8 82bc 71a2 af3d
000002a0: 23de 0f3d 3726 78bd 9777 fa3c 7826 97bc
000002b0: d2b3 6e3d 24d5 47bd f2c9 273d 0c5f c9bc
000002c0: 0239 563d f7f2 4a3b 91eb a4bc 4b49 c8bc
000002d0: 3eda b1bd d001 4dbd 98b4 583c 1cc2 7abd
000002e0: bb3b 733c cc08 953d 4857 c93c 678c 99be
000002f0: 81ca 0f3e 287c 4f3e 7401 763d 7441 c83c
00000300: 1cb9 653e 3e1b 4dbc 29b0 99bc 2041 eb3c
00000310: b1b6 2ebd 861f acbd 38f9 f5bb 56cf 91bd
00000320: 7162 63bc 408e b03b 08a9 78bc 99df 963d
00000330: a5da 933d ac21 59be 51bc 823d 5177 37bd
00000340: 7f7c 113c 276a a53c 3268 823e c191 0bbe
00000350: 3be6 343b 2952 23bd ba74 cdbc 9289 d2bb
00000360: d4a8 003d fbc9 2cbd 95e9 063d cb04 8a3d
00000370: 6976 efbb 9544 a5bd 9108 9dbd ccfa aebd
00000380: 7417 62bd 9676 93bd 767d 1dbd c57c 583d
00000390: 543f a33e b709 2e3e 05b8 88be 40e2 983a
000003a0: ce6f 7f3d 2e46 023d 480b 493c d783 59bd
000003b0: e08e 3a3c 9ceb b0bc ae5b 8abd e1ae 6bbd
000003c0: 07a0 823d 9040 abbd 3470 033d 0692 18bb
000003d0: 8037 b73c b053 04bb 1bfd a63d 380c 60bd
000003e0: ee91 7dbc 01af 9c3d a174 af3d 1a03 0d3d
000003f0: 4a33 2f3d 2ce2 d3bc 1cc5 693d 102c 2bbe

sequential_1_1/conv1d_1_2/convolution/ExpandDims_1:0 f4 [128, 128, 1, 3]
0.022823296 0.042482533 0.028705753 -0.07447457 0.049936466 0.06380359 0.007204078 0.029143766
-0.047892895 0.07537859 -0.079710245 -0.07568019 -0.046393815 0.060655527 0.0045698583 0.019722663
0.055071585 -0.054886322 0.05659496 -0.085259825 0.049347304 -0.0096421465 0.078464024 -0.079311244
-0.051211454 0.036091946 -0.035779133 0.06999735 0.020927226 -0.06978479 -0.07262467 0.061371587
0.054164834 -0.068681404 0.07359987 -0.0032322183 0.0028087494 0.07493298 -0.073549315 -0.064855374
-0.047580965 -0.09315976 0.011367835 -0.06423224 0.048755817 0.061945863 -0.03195142 -0.049706116
-0.03102931 0.08739897 0.036327653 -0.05882956 0.06943623 0.0033331588 0.016143821 0.045463495
-0.0834681 0.032086626 0.07399722 0.06880277 0.039128147 0.062209867 -0.023095675 0.0866219
0.048805527 -0.05798559 0.058085434 0.014302745 0.029933766 0.020240754 0.038834613 0.014290031
-0.012565725 0.029902175 -0.010868236 0.07905375 -0.062920146 -0.079206675 0.07411552 0.07049556
-0.02762173 0.05049879 0.06996315 0.027950145 0.08707514 -0.07647623 0.04178188 0.012982306
-0.091144085 -0.0499742 0.086563446 -0.0110787 0.039469935 -0.026136693 -0.01705455 -0.0603734
0.055234857 0.05294905 -0.032962587 0.02099859 -0.027633708 -0.0049045235 -0.020921864 0.037735336
-0.058897354 -0.053087454 -0.06798755 -0.06978479 0.053533323 -0.063735664 -0.0645377 0.034595378
-0.000661239 -0.029802438 -0.011805534 -0.077290654 -0.0013171859 0.028496342 0.053070217 0.021499377
-0.060609844 0.017904148 0.043461345 0.03533831 -0.02248072 -0.0064007784 -0.0024286592 0.0038622152
-0.037161 -0.059599414 -0.067729436 -0.07966835 -0.059852082 0.048746586 -0.029889515 -0.066503614
-0.070840254 -0.034752373 -0.061303496 -0.018587917 0.00034061074 -0.079646245 -0.062033206 0.01914841
-0.066799 0.022616379 -0.07864798 0.0606632 0.041384242 0.0424475 0.020343795 -0.03427818
-0.01133731 -0.032915317 0.018178798 0.05710598 0.0029045045 0.07795384 -0.046815548 -0.003938392
0.05159893 -0.0044910833 -0.015280716 -0.0692149 0.04900085 0.05778523 0.07834281 0.016192224
-0.057264186 0.07335273 -0.06869909 0.0057539716 -0.04705799 0.0240452 -0.0054825023 -0.048425276
0.0600122 -0.074919924 -0.030624323 -0.08093221 -0.073187284 0.00053077936 0.052341662 -0.035366897
-0.0045766607 0.08766536 -0.06626053 -0.039246008 0.07071025 -0.023073122 0.009122498 0.078299485
-0.07016974 0.029631302 -0.027027782 0.028893458 0.04063519 0.06938926 -0.030451097 0.07649387
0.014624178 0.041395523 0.002427362 0.0062582195 -0.023615694 -0.059996206 0.05883748 -0.041260142
-0.08096662 0.011666223 -0.012692988 -0.024018265 0.05695706 0.08599811 -0.059499737 0.06241343
-0.071729004 -0.0129735395 0.0651947 0.08231134 -0.08499639 0.01596868 0.08574117 -0.0141286105
-0.010533571 0.0058047394 -0.06422004 -0.068705775 -0.047283623 0.014310513 -0.08963337 -0.08092016
-0.000349164 -0.009300858 -0.08979582 0.01803124 -0.05854505 0.0047734454 -0.058102757 -0.046607986
-0.02452068 0.013299294 -0.04530097 0.06466662 0.07750616 0.010758281 -0.06357393 -0.030099757
0.0018090904 0.049489103 0.033773996 0.04141905 0.00726936 0.0529185 -0.04995592 -0.04728815
00000000: ecf7 ba3c 2a02 2e3d 5428 eb3c 2086 98bd
00000010: 2e8a 4c3d 75ab 823d 3010 ec3b e8be ee3c
00000020: 572b 44bd 1760 9a3d 203f a3bd 37fe 9abd
00000030: 7107 3ebd ee71 783d c0be 953b 6c91 a13c
00000040: be92 613d 7bd0 60bd 1ed0 673d b49c aebd
00000050: 6620 4a3d 18fa 1dbc bfb1 a03d ef6d a2bd
00000060: 1ac3 51bd 26d5 133d 248d 12bd c55a 8f3d
00000070: 936f ab3c 54eb 8ebd 3ebc 94bd c660 7b3d
00000080: f2db 5d3d d6a8 8cbd 87bb 963d a0d3 53bb
00000090: ff12 383b 7676 993d 06a1 96bd e5d2 84bd
000000a0: 42e4 42bd 8bca bebd 2840 3a3c 318c 83bd
000000b0: 2eb4 473d f2ba 7d3d 7edf 02bd a498 4bbd
000000c0: 2e31 febc 3bfe b23d 4ecc 143d 44f7 70bd
000000d0: 9534 8e3d 2071 5a3b 0c40 843c ee37 3a3d
000000e0: 53f1 aabd 446d 033d db8b 973d 77e8 8c3d
000000f0: d644 203d c6cf 7e3d 2433 bdbc d366 b13d
00000100: 4ee8 473d 4c82 6dbd feea 6d3d 1056 6a3c
00000110: a837 f53c f0cf a53c 0b11 1f3d bc20 6a3c
00000120: 78e0 4dbc 68f5 f43c b010 32bc efe6 a13d
00000130: 47dc 80bd 1c37 a2bd e1c9 973d fa5f 903d
00000140: f746 e2bc d2d7 4e3d d748 8f3d b4f7 e43c
00000150: 7354 b23d 929f 9cbd 7a23 2b3d bdb3 543c
00000160: c0a9 babd bfb1 4cbd 2d48 b13d 7083 35bc
00000170: 3aab 213d 9e1c d6bc fcb5 8bbc 194a 77bd
00000180: f23d 623d 1ae1 583d c703 07bd 3c05 ac3c
00000190: 1660 e2bc 20b6 a0bb 5464 abbc 5e90 1a3d
000001a0: 5a3e 71bd 3b72 59bd 0e3d 8bbd 54eb 8ebd
000001b0: c245 5b3d d887 82bd 572c 84bd e2b3 0d3d
000001c0: 0057 2dba 3e24 f4bc 006c 41bc 904a 9ebd
000001d0: 6da5 acba 2971 e93c 2860 593d 761f b03c
000001e0: 0742 78bd b8ab 923c 8604 323d e7be 103d
000001f0: 7d29 b8bc 9fbd d1bb 242a 1fbb 381d 7d3b
00000200: 2236 18bd 841e 74bd bbb5 8abd 2929 a3bd
00000210: 7527 75bd 80aa 473d dbda f4bc 0c33 88bd
00000220: b214 91bd 8158 0ebd 6019 7bbd b045 98bc
00000230: 0094 b239 921d a3bd 8816 7ebd 20dd 9c3c
00000240: eacd 88bd fc45 b93c 3112 a1bd fa79 783d
00000250: 8682 293d 6edd 2d3d 08a8 a63c 4767 0cbd
00000260: 20c0 39bc 36d2 06bd b4eb 943c f6e7 693d
00000270: 8059 3e3b 43a6 9f3d a9c1 3fbd a00d 81bb
00000280: 6659 533d f029 93bb f85b 7abc 8bc0 8dbd
00000290: 1eb5 483d 35b0 6c3d 3272 a03d 8ea5 843c
000002a0: da8d 6abd f539 963d 1cb2 8cbd d08b bc3b
000002b0: e1bf 40bd 70fa c43c 90a6 b3bb 9559 46bd
000002c0: 5acf 753d 9e6f 99bd dcdf fabc c9bf a5bd
000002d0: 37e3 95bd 0024 0b3a 3664 563d e1dc 10bd
000002e0: d0f7 95bb e589 b33d 9ab3 87bd 6cc0 20bd
000002f0: 89d0 903d d803 bdbc 8876 153c 7b5b a03d
00000300: 27b5 8fbd 58bd f23c 5e69 ddbc f9b1 ec3c
00000310: 1671 263d f51b 8e3d 9474 f9bc d1a8 9c3d
00000320: 409a 6f3c 5a8e 293d 6014 1f3b c011 cd3b
00000330: b375 c1bc 95be 75bd 92ff 703d 6500 29bd
00000340: d4d1 a5bd b023 3f3c 40f6 4fbc f4c1 c4bc
00000350: ce4b 693d c71f b03d ffb5 73bd 3aa5 7f3d
00000360: a8e6 92bd f88e 54bc cd84 853d d992 a83d
00000370: 9612 aebd c0d0 823c 1199 af3d b07b 67bc
00000380: 0095 2cbc af35 be3b cc85 83bd 9db5 8cbd
00000390: 79ac 41bd a476 6a3c b391 b7bd 78b9 a5bd
000003a0: 0010 b7b9 a062 18bc dfe6 b7bd 40b6 933c
000003b0: efcc 6fbd 906a 9c3b 28fd 6dbd 04e8 3ebd
000003c0: 98df c8bc 48e5 593c 838d 39bd ef6f 843d
000003d0: 8dbb 9e3d 8043 303c 0c33 82bd c493 f6bc
000003e0: 001f ed3a 16b5 4a3d 9a56 0a3d 06a7 293d
000003f0: d033 ee3b 12c1 583d 949e 4cbd 38b1 41bd

sequential_1_1/conv1d_1/convolution/ExpandDims_1:0 f4 [128, 1, 1, 3]
-0.06025903 0.09296987 0.13523646 0.005466372 -0.08990784 0.01606299 -0.082300864 -0.04550799
-0.025498107 -0.11130787 0.047416955 -0.058196098 -0.11901236 -0.10017516 -0.113611124 -0.07555948
-0.05050184 -0.108176015 -0.1143538 0.007998303 -0.00499928 0.043465205 -0.06493921 0.10029777
0.0556757 -0.058699526 -0.038886935 -0.026762 0.07047758 -0.001675461 -0.02083078 0.09665792
0.07512284 0.019801065 0.0018042028 -0.10705188 0.09452575 0.048466563 0.047408402 0.06659358
-0.058877878 -0.019379811 0.19898152 0.056920607 -0.1571364 0.01575689 -0.11909881 0.047748968
-0.0868406 0.07167506 -0.102778494 0.017692074 -0.03208921 -0.0070263073 0.06722731 -0.04844015
0.11171203 -0.033912033 0.02776406 -0.0012806013 -0.1073092 -0.06792519 0.008100465 0.07628557
-0.1217481 -0.01231545 0.0056156367 -0.11386551 -0.068554014 0.16971666 -0.030828394 0.011021538
-0.07317473 -0.009066254 -0.0023710057 -0.11497436 -0.0033399658 0.15031905 -0.05272027 0.019974038
-0.14936191 -0.024722368 -0.029806964 0.020889267 -0.03937231 -0.0219578 -0.07942278 0.11898333
-0.025234552 0.04596725 -0.10745333 -0.040567905 0.008635685 -0.12277021 -0.024338432 -0.052675523
0.024954066 -0.11534572 -0.048502654 -0.004922211 -0.10591684 -0.09426067 0.040962704 0.0409838
0.04834224 -0.058171142 -0.08507539 0.083972566 -0.04318761 0.09267191 0.030299675 0.032943677
-0.07712865 0.013141908 0.036495678 0.12043141 0.11279863 0.04510543 -0.06318321 0.03889465
-0.06857224 -0.08961902 0.08224091 0.1538204 0.026430361 -0.26108372 -0.106031284 0.035690136
0.038160942 -0.14475366 0.0014571052 0.0743832 0.0073989453 -0.03879239 0.023032354 -0.02396521
0.0154761225 -0.09646703 -0.0729281 -0.06407805 -0.11171531 -0.059421323 0.11942583 0.10270907
0.034723178 -0.028720789 -0.11452236 -0.049700502 -0.09959702 0.10624524 0.0152261555 -0.08823299
-0.019285 -0.00065398077 -0.034130365 0.023763092 0.09979529 0.07997076 0.100775786 0.08940307
0.08026136 -0.033162344 -0.08547105 -0.06812854 0.08802074 0.11346388 -0.081824794 0.10221199
-0.005907755 -0.009882963 0.0058001205 -0.0448825 -0.06773564 -0.0068779364 0.014847398 -0.12973593
0.06120954 0.030326158 -0.03151103 -0.117611334 0.07991656 -0.15761872 -0.027466433 -0.0015699491
0.016741931 -0.062113333 0.06531401 0.0028725269 0.01744925 -0.09369561 -0.04700675 0.0634812
-0.021393614 0.05513069 -0.048264537 0.14404996 0.11171014 -0.04433415 -0.12140445 -0.07269722
0.102935925 -0.11865083 0.016986564 0.11407664 0.14116804 0.12619801 -0.07760427 -0.121658534
0.07273899 -0.103867754 -0.070840806 0.051182404 -0.03826209 -0.12417148 0.07398036 -0.10141938
-0.05679471 -0.014312379 0.023231983 0.121368766 -0.112643644 -0.11556795 0.023708396 -0.019808004
-0.022645192 0.038329285 0.06809613 0.065305255 0.09504982 0.05010999 0.004220713 -0.08718985
0.03244753 -0.056404747 -0.07175915 0.01793638 -0.058236357 0.049120557 0.033250798 -0.1404522
-0.058364213 -0.09104935 -0.0735144 -0.039115816 0.013139695 -0.026121229 0.15050742 0.11434603
-0.16977735 0.025381073 -0.081831425 0.011257246 -0.03575717 -0.10709237 0.060651634 0.16386609
00000000: 2cd2 76bd fd66 be3d 6d7b 0a3e 401f b33b
00000010: 9a21 b8bd 8896 833c 5b8d a8bd 9666 3abd
00000020: 68e1 d0bc 61f5 e3bd 4838 423d 085f 6ebd
00000030: c1bc f3bd a228 cdbd f3ac e8bd eebe 9abd
00000040: 04db 4ebd 638b ddbd 5332 eabd 500b 033c
00000050: 00d1 a3bb 9208 323d d9fe 84bd eb68 cd3d
00000060: 340c 643d ea6e 70bd e847 1fbd fb3b dbbc
00000070: 8d56 903d 249b dbba 50a5 aabc 96f4 c53d
00000080: 01da 993d d835 a23c 007b ec3a 043e dbbd
00000090: b796 c13d e084 463d 502f 423d 3762 883d
000000a0: ee29 71bd 69c2 9ebc d0c1 4b3e 9525 693d
000000b0: 5de8 20be 9814 813c 14ea f3bd 6c94 433d
000000c0: 7cd9 b1bd 60ca 923d 887d d2bd f8ee 903c
000000d0: fa6f 03bd f03c e6bb 79ae 893d 2e69 46bd
000000e0: 47c9 e43d 58e7 0abd 7471 e33c d9d9 a7ba
000000f0: edc4 dbbd 5d1c 8bbd d0b7 043c 9c3b 9c3d
00000100: 1157 f9bd bec6 49bc 6003 b83b 5232 e9bd
00000110: 0c66 8cbd 34ca 2d3e d48b fcbc ae93 343c
00000120: a2dc 95bd a08a 14bc e062 1bbb ad77 ebbd
00000130: 54e3 5abb 3ded 193e 36f1 57bd 98a0 a33c
00000140: 54f2 18be 9086 cabc bc2d f4bc f81f ab3c
00000150: dc44 21bd d8e0 b3bc 69a8 a2bd 88ad f33d
00000160: b1b8 cebc 2848 3c3d 7e10 dcbd 882a 26bd
00000170: b07c 0d3c f36e fbbd 6461 c7bc 4ac2 57bd
00000180: 786c cc3c 603a ecbd b8aa 46bd 804a a1bb
00000190: eeea d8bd bd0b c1bd 82c8 273d a1de 273d
000001a0: 8302 463d dd44 6ebd 023c aebd cff9 ab3d
000001b0: 7ee5 30bd c5ca bd3d 0637 f83c f3ef 063d
000001c0: a0f5 9dbd 2851 573c 7e7c 153d bea4 f63d
000001d0: f802 e73d 79c0 383d 3366 81bd ff4f 1f3d
000001e0: 9a6f 8cbd 2d8a b7bd ec6d a83d 1883 1d3e
000001f0: 7c84 d83c c4ac 85be ee26 d9bd d22f 123d
00000200: a64e 1c3d 4e3a 14be 56fc be3a 3856 983d
00000210: da72 f23b c5e4 1ebd 59ae bc3c b052 c4bc
00000220: 908f 7d3c 8290 c5bd 545b 95bd 5a3b 83bd
00000230: ffca e4bd c663 73bd 8895 f43d 2259 d23d
00000240: e439 0e3d dc47 ebbc b38a eabd c192 4bbd
00000250: 86f9 cbbd 1b97 d93d 2077 793c 7fb3 b4bd
00000260: 94fb 9dbc e86f 2bba 48cc 0bbd d1aa c23c
00000270: 7961 cc3d b6c7 a33d 8963 ce3d f518 b73d
00000280: 1160 a43d 3dd5 07bd 720b afbd fa86 8bbd
00000290: 3844 b43d c05f e83d c293 a7bd 8554 d13d
000002a0: d795 c1bb 27ec 21bc f00e be3b b6d6 37bd
000002b0: fcb8 8abd 5060 e1bb 8042 733c 7fd9 04be
000002c0: dbb6 7a3d 906e f83c b611 01bd 36de f0bd
000002d0: 4bab a33d cd66 21be 4901 e1bc c0c6 cdba
000002e0: 6026 893c 8d6a 7ebd 5ac3 853d 0141 3c3b
000002f0: bbf1 8e3c 7ce3 bfbd 268a 40bd 6e02 823d
00000300: a941 afbc b8d0 613d 09b1 45bd d581 133e
00000310: 49c8 e43d ba97 35bd e5a2 f8bd 48e2 94bd
00000320: 12d0 d23d 35ff f2bd 6827 8b3c 03a1 e93d
00000330: 5b8e 103e 0d3a 013e fdee 9ebd 1c28 f9bd
00000340: 2ef8 943d 9eb8 d4bd fc14 91bd a4a4 513d
00000350: b6b8 1cbd 9e4d febd 0483 973d f7b4 cfbd
00000360: 92a1 68bd 787e 6abc 0051 be3c 3090 f83d
00000370: b6b1 e6bd e4ae ecbd 1c38 c23c 6544 a2bc
00000380: 6982 b9bc 2bff 1c3d fc75 8b3d c3be 853d
00000390: 7ba9 c23d 2240 4d3d e84d 8a3b 9890 b2bd
000003a0: b4e7 043d aa08 67bd 76f6 92bd 51ef 923c
000003b0: 3f89 6ebd a332 493d fd31 083d b4d2 0fbe
000003c0: 500f 6fbd 1578 babd b88e 96bd e837 20bd
000003d0: e047 573c 30fc d5bc 9e1e 1a3e 402e ea3d
000003e0: 1dda 2dbe f8eb cf3c 3c97 a7bd 5070 383c
000003f0: 1c76 12bd 3f53 dbbd d96d 783d 83cc 273e

const_fold_opt__119 f4 [1, 128, 1]
0.050044317 -0.021951819 -0.024388807 -0.1599853 -0.01917214 0.018271642 -0.013782184 -0.011194146
-0.15446268 -0.06319151 -0.07437084 -0.012106175 0.07919689 -0.023335772 0.066692054 -0.020849891
-0.18206193 0.03209097 -0.058705747 -0.13508517 -0.010771393 -0.15957025 -0.13420954 -0.0073041404
-0.020571612 -0.029840697 -0.028772997 -0.014673499 -0.20505562 -0.017718125 -0.01841056 -0.015638452
0.035538577 -0.028439743 -0.028955987 -0.11834987 0.09758964 -0.027838245 -0.17595217 0.016828647
-0.007882135 -0.010221399 -0.024971973 -0.008867123 -0.021736586 -0.14687073 -0.13612343 -0.22937025
-0.05234844 0.04207456 -0.089885615 -0.08886415 -0.13095719 0.075432844 -0.019992538 -0.0116064
-0.020365901 -0.012482897 -0.15065439 -0.19430174 0.08179366 -0.2477114 -0.023132835 -0.01570694
-0.03218699 -0.009732742 -0.03493857 -0.12830013 -0.14948387 -0.022920508 -0.029809486 -0.1536962
-0.025116907 -0.14253591 -0.029229991 -0.034377404 -0.0011473892 -0.009214407 -0.027788587 -0.053911455
-0.031362146 -0.017987644 -0.054755382 -0.031558473 -0.06984518 -0.009379745 -0.034819916 -0.031261075
-0.20189705 -0.016360423 -0.1802295 -0.016164009 -0.16826952 -0.04057631 -0.21511538 0.028445855
-0.026872393 -0.065121636 -0.020492502 -0.0217657 -0.020161245 -0.03342277 -0.011986947 -0.018272165
-0.0031791416 -0.014116953 -0.053528663 -0.023348324 -0.20145282 -0.038837146 -0.17566569 -0.037649464
0.038232613 0.25648108 0.07374994 -0.11390937 0.03232182 -0.04766696 -0.008010359 -0.022614699
-0.16881204 0.010230955 -0.15975827 -0.016286042 -0.03361002 -0.06395543 -0.09783341 -0.049575135
00000000: 45fb 4c3d 4dd4 b3bc 09cb c7bc 30d3 23be
00000010: e40e 9dbc 69ae 953c abce 61bc a767 37bc
00000020: 772b 1ebe 8d6a 81bd bd4f 98bd fa58 46bc
00000030: fb31 a23d a92a bfbc d895 883d 64cd aabc
00000040: 716e 3abe d271 033d 7075 70bd c453 0abe
00000050: 7f7a 30bc 6266 23be 3a6e 09be 9257 efbb
00000060: cc85 a8bc 7a74 f4bc 59b5 ebbc 1e69 70bc
00000070: 1afa 51be 9a25 91bc bed1 96bc 361c 80bc
00000080: e690 113d 77fa e8bc 1b35 edbc 6b61 f2bd
00000090: 14dd c73d 080d e4bc ce2c 34be 3bdc 893c
000000a0: 1224 01bc a877 27bc 0692 ccbc 6947 11bc
000000b0: ed10 b2bc 4865 16be f163 0bbe 09e0 6abe
000000c0: 516b 56bd 6056 2c3d f315 b8bd 68fe b5bd
000000d0: a419 06be 897c 9a3d 64c7 a3bc c528 3ebc
000000e0: 64d6 a6bc 1185 4cbc 2545 1abe 09f7 46be
000000f0: 6f83 a73d 0fa8 7dbe 1281 bdbc d7ab 80bc
00000100: 81d6 03bd 1476 1fbc bf1b 0fbd 1c61 03be
00000110: 4d12 19be cac3 bbbc 0633 f4bc 8962 1dbe
00000120: f9c1 cdbc eff4 11be bc73 efbc 52cf 0cbd
00000130: fe63 96ba 06f8 16bc e4a4 e3bc 42d2 5cbd
00000140: 9875 00bd d35a 93bc 2e47 60bd 7543 01bd
00000150: fd0a 8fbd 81ad 19bc 549f 0ebd 9d0b 00bd
00000160: 1abe 4ebe 4b06 86bc 158e 38be 626a 84bc
00000170: d84e 2cbe 5833 26bd 3547 5cbe 4807 e93c
00000180: 7e23 dcbc 7e5e 85bd e4df a7bc fb4d b2bc
00000190: 3229 a5bc 51e6 08bd e664 44bc 82af 95bc
000001a0: 2559 50bb cb4a 67bc df40 5bbd fc44 bfbc
000001b0: a649 4ebe b313 1fbd b5e1 33be 5336 1abd
000001c0: cd99 1c3d 7d51 833e 350a 973d 5149 e9bd
000001d0: e263 043d 6e3e 43bd e13d 03bc 7642 b9bc
000001e0: 10dd 2cbe bc9f 273c ac97 23be 4e6a 85bc
000001f0: a9aa 09bd 11fb 82bd e25c c8bd 4c0f 4bbd

const_fold_opt__118 f4 [1, 128, 1]
-0.16084002 0.0 0.0 0.0 0.0 0.0 0.0 -0.13756058
0.0 -0.091297776 -0.15055126 0.0 -0.1630302 -0.045228075 -0.08198038 0.0
0.0 0.0 -0.17157194 -0.010919954 0.0 -0.007968516 0.0 -0.1416059
0.0 -0.09089548 0.11222671 0.0 0.0 -0.1758273 0.0 0.0
0.0 0.0 -0.16553286 -0.008353131 -0.14185552 -0.045145717 -0.14890783 -0.048770003
-0.0058229705 0.10687551 -0.020992074 -0.028816398 -0.016868446 0.0 0.0 -0.15014696
0.0 -0.0028333548 0.0 -0.013576933 -0.15845333 -0.14415182 -0.012750619 -0.16803126
-0.022631923 0.0 -0.008339597 0.0 0.006134363 0.0 -0.14668569 0.0
-0.01123953 -0.17900783 0.0 -0.08861459 -0.16095652 0.0 0.0 0.0
0.0 0.0 -0.009238839 -0.14280465 -0.18450679 0.0 0.155809 -0.016032895
0.0 0.0 -0.09013915 0.0 -0.0537762 -0.04579264 0.0 -0.14027344
0.033025935 -0.16192022 -0.12918966 0.0 -0.023903219 -0.012340351 0.0 -0.03048432
-0.007644842 -0.05801107 -0.17280395 0.0 -0.14024341 -0.01042812 0.0 0.0018723565
0.0 0.0 0.0 0.0 -0.06638982 -0.05522639 -0.17584924 -0.13798276
-0.17628475 0.0 0.0 0.0 -0.0049775364 -0.17824854 -0.005010841 0.21569394
0.15836246 -0.16028155 0.0027022024 0.0 -0.011937025 0.0 0.0 -0.022733945
00000000: 3fb3 24be 0000 0000 0000 0000 0000 0000
00000010: 0000 0000 0000 0000 0000 0000 aedc 0cbe
00000020: 0000 0000 54fa babd 1c2a 1abe 0000 0000
00000030: 64f1 26be 1341 39bd 54e5 a7bd 0000 0000
00000040: 0000 0000 0000 0000 8eb0 2fbe 9be9 32bc
00000050: 0000 0000 618e 02bc 0000 0000 2301 11be
00000060: 0000 0000 6927 babd 1ed7 e53d 0000 0000
00000070: 0000 0000 120c 34be 0000 0000 0000 0000
00000080: 0000 0000 0000 0000 7281 29be 92db 08bc
00000090: 9342 11be b7ea 38bd 4b7b 18be 0ec3 47bd
000000a0: 9ece bebb 8ce1 da3d 92f7 abbc 5e10 ecbc
000000b0: b22f 8abc 0000 0000 0000 0000 20c0 19be
000000c0: 0000 0000 ceaf 39bb 0000 0000 c971 5ebc
000000d0: 9741 22be 899c 13be f9e7 50bc 6310 2cbe
000000e0: 9566 b9bc 0000 0000 cea2 08bc 0000 0000
000000f0: c402 c93b 0000 0000 c634 16be 0000 0000
00000100: 0126 38bc d44d 37be 0000 0000 917b b5bd
00000110: c9d1 24be 0000 0000 0000 0000 0000 0000
00000120: 0000 0000 0000 0000 805e 17bc 623b 12be
00000130: 59ef 3cbe 0000 0000 658c 1f3e 6b57 83bc
00000140: 0000 0000 0000 0000 e09a b8bd 0000 0000
00000150: 6f44 5cbd 1091 3bbd 0000 0000 d7a3 0fbe
00000160: 3446 073d 6ace 25be 4b4a 04be 0000 0000
00000170: afd0 c3bc 2f2f 4abc 0000 0000 41ba f9bc
00000180: 9581 fabb 049d 6dbd 85f3 30be 0000 0000
00000190: f89b 0fbe b5da 2abc 0000 0000 dc69 f53a
000001a0: 0000 0000 0000 0000 0000 0000 0000 0000
000001b0: 63f7 87bd 1135 62bd d311 34be 5a4b 0dbe
000001c0: fd83 34be 0000 0000 0000 0000 0000 0000
000001d0: 9a1a a3bb c986 36be fb31 a4bb dfde 5c3e
000001e0: c529 223e d920 24be 6f17 313b 0000 0000
000001f0: 8393 43bc 0000 0000 0000 0000 8a3c babc

const_fold_opt__107 f4 [1, 128, 1]
-0.014870417 -0.00828772 -0.035710394 -0.0093068965 -0.017683065 0.121731825 0.0 -0.16645454
-0.0072865924 -0.040716894 0.16147298 -0.016599057 -0.02850253 -0.046221185 -0.007256521 -0.01096968
-0.017935844 -0.029931465 -0.008690411 -0.019165454 -0.0062665497 -0.021312786 -0.016534707 -0.020449173
-0.025481287 -0.021385225 0.05116889 -0.029621162 -0.010021177 -0.009458757 -0.014352299 -0.008899069
-0.027125757 -0.013254045 -0.023907317 0.12782098 -0.18137719 -0.026395729 -0.013532887 -0.025843222
0.15653902 -0.016878543 0.1589554 -0.016515141 -0.014888467 -0.025447216 -0.021745728 0.1676693
0.0 -0.012048149 -0.0055281776 -0.015655667 -0.0085514365 0.13422745 0.020206366 -0.013392904
-0.034828667 0.0 -0.04323735 -0.012401742 -0.02367385 -0.030103732 0.15033741 -0.22172186
0.16925456 -0.011929846 -0.043254204 -0.016543038 0.12909885 -0.0056462684 0.15707228 -0.058442112
-0.0103762755 -0.00952816 -0.013102967 -0.0053691077 -0.011450129 -0.016596124 -0.04001181 -0.015228553
0.0 -0.032912057 -0.015800118 -0.005271689 -0.030799905 -0.11788237 -0.011343448 -0.018046418
-0.028362326 -0.044646442 -0.01641211 -0.09059509 -0.0029045031 0.04283115 -0.052541763 -0.026568728
-0.010663404 -0.18480738 -0.12720442 -0.043111537 -0.01641527 -0.024713865 -0.021472814 -0.0073644635
-0.0042094593 -0.07091662 -0.0071684425 0.12874943 -0.057077456 0.15206209 -0.031356465 -0.06331854
-0.018904781 -0.0068846196 -0.013776959 -0.0139696915 0.18135113 -0.15491597 0.057656173 -0.022184918
-0.016598871 -0.07618688 0.0 -0.04031039 -0.029187994 -0.052920725 -0.018094268 -0.058769118
00000000: 0da3 73bc 38c9 07bc 1045 12bd f47b 18bc
00000010: 13dc 90bc 894e f93d 0000 0000 0f73 2abe
00000020: 5ec4 eebb c2c6 26bd 2c59 253e bffa 87bc
00000030: 237e e9bc 6d52 3dbd 1cc8 edbb 2cba 33bc
00000040: 31ee 92bc d532 f5bc 3a62 0ebc df00 9dbc
00000050: a157 cdbb 2798 aebc cb73 87bc 0685 a7bc
00000060: 22be d0bc 1130 afbc 7896 513d 14a8 f2bc
00000070: dd2f 24bc e7f8 1abc e825 6bbc 67cd 11bc
00000080: d636 debc 7e27 59bc 47d9 c3bc 81e3 023e
00000090: f1ba 39be db3b d8bc 0bb9 5dbc 2ab5 d3bc
000000a0: c44b 203e df44 8abc 34c5 223e c34a 87bc
000000b0: c2ee 73bc ae76 d0bc 1924 b2bc 80b1 2b3e
000000c0: 0000 0000 9965 45bc b725 b5bb 5040 80bc
000000d0: 531b 0cbc ec72 093e d287 a53c e96d 5bbc
000000e0: 81a8 0ebd 0000 0000 a619 31bd ad30 4bbc
000000f0: a9ef c1bc 1a9c f6bc 0df2 193e 0e0b 63be
00000100: 1151 2d3e 6775 43bc 522b 31bd 4485 87bc
00000110: 7d32 043e 5504 b9bb 8ed7 203e ff60 6fbd
00000120: 4101 2abc 001c 1cbc d4ad 56bc 57ef afbb
00000130: 5299 3bbc 98f4 87bc 6ce3 23bd 2e81 79bc
00000140: 0000 0000 cbce 06bd 406f 81bc 22be acbb
00000150: 1550 fcbc 506c f1bd dfd9 39bc 15d6 93bc
00000160: 1c58 e8bc 30df 36bd b072 86bc eb89 b9bd
00000170: 7a59 3ebb b76f 2f3d 0836 57bd a9a6 d9bc
00000180: 8fb5 2ebc 253e 3dbe e041 02be b995 30bd
00000190: 5179 86bc bb74 cabc c1e7 afbc 9951 f1bb
000001a0: 81ef 89bb bc3c 91bd 41e5 eabb e4d6 033e
000001b0: 0dca 69bd 2ab6 1b3e a36f 00bd 27ad 81bd
000001c0: 33de 9abc 6098 e1bb c1b8 61bc 22e1 64bc
000001d0: 1cb4 393e 4ba2 1ebe e128 6c3d 25bd b5bc
000001e0: 5bfa 87bc de07 9cbd 0000 0000 821c 25bd
000001f0: a91b efbc 67c3 58bd 6e3a 94bc e3b7 70bd
