models/cnn_3layers_84.03_20250409003023/model_250.onnx (onnx, 58134 bytes, 10 tensors)

sequential_63_1/dense_128_1/Cast/ReadVariableOp:0 f4 [64, 7]
00000000: 507f c2bd 3f49 a1bf 52e4 113f 64fd d83c
00000010: e70c a43e 2b53 debf ade9 d2be ec04 183f
00000020: 5b82 ed3e a5e8 70be 8cca 2fbf a97b babe
00000030: 4b6a 08bf 9ff8 8dbe 1316 1d3d a289 9d3d
00000040: 72c8 40bc 8081 e93d d3fc 60be dde5 133e
00000050: 65c1 b0bd be01 47bc 34e4 e43d 5252 2a3e
00000060: 8e62 733d 9b50 5a3e 267d 19be 75ab cdbd
00000070: 2d58 3bbf ab2c 893e 73f1 c3bf ab0f 2e3e
00000080: d4df b23e 4faf b43e 7a56 ae3e 4bb9 2dbe
00000090: 53d9 74bc bdf2 26be 82ec 56be eabc 893d
000000a0: a184 b7bd 3f07 9abe a43c 97bf 5e5a b9bf
000000b0: 9348 c13e 0830 ffbe 0b47 89bf c5aa af3e
000000c0: 22ce d43e e362 0d3f 2334 cb3e eb8e 28bf
000000d0: 7087 80bf 4b5e 96bf ccfe 273f ebe6 79bf
000000e0: b4ce 87be a4f8 da3d 789c 8ebe c4c0 35be
000000f0: 89b2 a9bd d7ba 343e 82bb 533e 9970 dbbf
00000100: 9949 0b3e 1405 af3e 5ef1 543e 026e 863e
00000110: 0374 433e 585a a53e 8df1 d73d 3a4e ab3d
00000120: 3b13 72be e627 82bd e3d8 1f3e e852 bb3d
00000130: 8c9e cb3d 8ad1 ee3e 509e d23e b9ea 26bf
00000140: 8f7b dabe 0a77 bb3e 42f8 b23e 5709 b3bf
00000150: 1c3d 13be 818a ca3d 7edc 82bd f1a9 5e3e
00000160: 3676 02be 09fe 2a39 a44d 65be 2885 70be
00000170: 817b 99be bc78 643e 8e84 90be 2df6 483e
00000180: a9dc 03be 0ee4 f8bd b477 87bf 258e ad3e
00000190: 833f 9bbf 25b9 a63d 978f a73e 903e af3e
000001a0: 66e6 bb3e 7684 06be 5b75 95bf f970 94bf
000001b0: b8ee eabd 786e 603f c4a7 263f 1dd9 27bf
000001c0: 139a e53e cb30 533e 0152 953c 38f6 36bf
000001d0: a8a9 e3bf 2b20 983e b322 95be d675 cdbf
000001e0: cc75 f7be 6844 9d3e 299d abbf a6ae b73e
000001f0: 8d0d ae3e 5e5a ac3e 6d7f c9bf 5370 7cbf
00000200: 8612 b43e d299 533e 2fc4 4fbf 7289 3dbe
00000210: 22af 8e3e e199 e23e a0c5 9dbf 45a0 f8bf
00000220: b55a a53d 42d2 023f 7fc8 713e bc77 b6bf
00000230: 1c18 e33e dbbb 8dbf 99f3 083f 02e3 5f3e
00000240: f900 bc3e f895 babf c6f5 b33d 1eb1 4fbf
00000250: 8238 e43e 78ab abbf 892b b33e b94c 043f
00000260: e925 23bf ea57 293e 3b59 663e 0cd5 9b3e
00000270: 8870 57bf fe5b 6d3e 1a6d e23e f46f 4ebf
00000280: a7ae b0bf e38d 963d 1906 cabf 8d12 1ebf
00000290: 00d4 3bbf b39b 92be 2844 1b3f d57a 083f
000002a0: 5671 953e b6f3 8f3e 48ba eb3d 098f 5b3e
000002b0: f280 03bf 6440 48bf b1f0 abbf a1d9 47be
000002c0: d96c a3bc 2085 47be dc6e 64be 6137 8abe
000002d0: 37ba 8e3e bd92 2e3e 6a69 093f c367 fc3e
000002e0: cddc 4abf d826 0bbf f61b cabf cc8e 213f
000002f0: 19bb cbbf 9506 b53e f44c 983e c7e5 793d
00000300: 8188 a33e 77a6 a5bf a18f a83d 6b34 d8bf
00000310: 852c 073e 001b 103e a468 a4bf 92ac 003e
00000320: a3c0 c7bd 74f1 ff3d 0a5a cdbf 35a3 4fbf
00000330: b233 23bf 4cd5 f4be 1cc4 54bf 2acf f8be
00000340: a0cc 9b3f 145a 98be 32a9 49bf 13ab 16bf
00000350: b8cb 4d3e 86d0 203e 4d56 c03f 2f63 7cbf
00000360: 1dc3 08bf 091d 6abe aabe a13d 8a1e 7d3a
00000370: c6e7 953d de15 afbb 23b4 253e a3ba 99be
00000380: dbb2 abbf ca80 163e 33bd bbbf b5fe f03d
00000390: 6d41 713e 57f9 543e e23c 3a3e 3c52 90bd
000003a0: b3da 4e3e 9930 64bd 66fe 4fbe bf49 8cbe
000003b0: 092c 753e 090c 7b3e 26c9 83bf 1c7a a5bf
000003c0: ce05 da3e f03e 9e3e 0d7f dabe 1089 64bf
000003d0: 32b2 c53e 86fc 933e 9f1a 793e f35e 55bf
000003e0: f151 7c3e b8c2 cabf f34e aa3e fb28 31bf
000003f0: 3ab9 b33e 21f8 90bf ab5a ad3e e5bd de3e
-0.09496939 -1.2600478 0.56989014 0.026488014 0.32041094 -1.7369131 -0.41193905 0.5938251
0.46388516 -0.23526247 -0.68668437 -0.3642247 -0.5328719 -0.27728745 0.03835113 0.07692267
-0.01176654 0.11401653 -0.21971445 0.14443155 -0.08630637 -0.012146411 0.11176339 0.16632965
0.05942016 0.21319811 -0.14989147 -0.100424685 -0.7318142 0.2679189 -1.530806 0.16998164
0.34936392 0.3529 0.3405035 -0.16965215 -0.014944392 -0.16303535 -0.20988658 0.067254856
-0.08960844 -0.30083653 -1.1815381 -1.4480703 0.37750682 -0.49841332 -1.0724806 0.34309974
0.41563517 0.55229014 0.39688215 -0.65843076 -1.0041332 -1.1747526 0.65623164 -0.9761798
-0.2652489 0.10691956 -0.2785375 -0.17749316 -0.08286006 0.17649399 0.20676997 -1.7143737
0.13602294 0.34183562 0.207952 0.26255804 0.19087224 0.3229549 0.10544119 0.0836453
-0.23640148 -0.06355266 0.1561008 0.091466725 0.0994235 0.4664424 0.41136408 -0.6520191
-0.42672393 0.36614257 0.3495503 -1.3987225 -0.1437878 0.09889699 -0.06389712 0.21744515
-0.12740406 0.00016307099 -0.22392899 -0.23488295 -0.29977039 0.22311682 -0.2822613 0.19625159
-0.12877144 -0.12152873 -1.0583405 0.3389751 -1.2128757 0.08140782 0.32726738 0.3422742
0.36699218 -0.13136467 -1.1676439 -1.1596977 -0.11471313 0.8766856 0.6509974 -0.65565664
0.44844112 0.20624082 0.01822758 -0.7146945 -1.778615 0.29712042 -0.29128036 -1.6051586
-0.4833206 0.30716252 -1.3407336 0.35875434 0.33994713 0.33662695 -1.5742012 -0.98608893
0.35170382 0.20664147 -0.8115873 -0.18509462 0.2786799 0.44258025 -1.2325935 -1.942391
0.080739416 0.5110208 0.2361164 -1.425529 0.44354331 -1.1072954 0.534967 0.2186394
0.36719492 -1.4577017 0.08787112 -0.81129634 0.44574362 -1.3411703 0.34994152 0.5167957
-0.6372972 0.16537443 0.22494976 0.3043598 -0.84156084 0.23179623 0.44223863 -0.80639577
-1.38033 0.073512815 -1.5783111 -0.61747056 -0.7337036 -0.28634414 0.60650873 0.53312427
0.2918803 0.28115624 0.1151014 0.21441282 -0.5136863 -0.7822325 -1.3432828 -0.19516613
-0.019949364 -0.19484377 -0.22307914 -0.26995376 0.27876446 0.17048164 0.53676474 0.49297914
-0.79243165 -0.54356146 -1.5789783 0.63108516 -1.5916473 0.35356584 0.2974621 0.06101015
0.31940082 -1.2941426 0.0823052 -1.6890997 0.13200577 0.140728 -1.2844434 0.1256583
-0.097535394 0.124972254 -1.6043103 -0.8110841 -0.63750756 -0.47818983 -0.8311174 -0.48595554
1.2171822 -0.29756224 -0.78773797 -0.5885479 0.20097244 0.15704545 1.5026337 -0.9858884
-0.5342272 -0.22862639 0.078976944 0.0009655735 0.07319598 -0.005343183 0.16181998 -0.30025205
-1.3413957 0.14697567 -1.4667114 0.117673315 0.23560114 0.2079824 0.18187287 -0.07046935
0.20200615 -0.05571041 -0.20311889 -0.27400014 0.2394258 0.2451631 -1.0295761 -1.292789
0.42582554 0.30907393 -0.42675057 -0.8927164 0.38612515 0.28903598 0.24326561 -0.83348006
0.24640633 -1.5840673 0.33263358 -0.69203156 0.35102254 -1.1325723 0.33858237 0.43504253

sequential_63_1/dense_128_1/BiasAdd/ReadVariableOp:0 f4 [7]
00000000: 6c94 a0bc 459d cb3e 61b8 f1be 404a c2bd
00000010: 5933 af3e fd88 e1be 726f 643e
-0.019602023 0.39768425 -0.47210982 -0.09486818 0.34218863 -0.44049826 0.22308138

sequential_63_1/dense_127_1/Cast/ReadVariableOp:0 f4 [96, 64]
00000000: ad60 cc3d f1b4 643e 09f5 11bb c939 1c3e
00000010: fef1 a0be 8800 73bd a6c1 8cbe efa6 233e
00000020: ee46 d83d 52f4 66be 2809 17be a715 3a3e
00000030: a467 cdbd b6eb 94bd ba84 58be 476e f4be
00000040: acb3 a23e 0589 dabe 2826 8cbe cbae 10bf
00000050: 1e5e 61be 68e2 8abc e256 463e a050 83be
00000060: 67b2 c03e 05a4 883d d137 fc3d 89c0 193f
00000070: ff52 003f c3cb 4f3c 97c6 7bbd 4f3d be3d
00000080: 1d3b 89be b474 41be 3321 4fbe 2358 a43e
00000090: b8a1 f23c 7608 bd3e cfa6 64be aaed 243d
000000a0: e0b9 56be f685 1f3e 1019 0b3f 2028 043c
000000b0: 605b 323d 42d1 2b3f 006c 69be ce3d de3d
000000c0: 7be4 47be b3f1 2bbe da81 6e3e e8f6 3e3d
000000d0: c851 dc3d 8e5e 913d 8c87 55be 1feb bebb
000000e0: bc0a 08bd df8e 29bf 29ee 3abe fe91 fbbc
000000f0: c4f4 953e 0848 d73d 4ddb cf3e a39f c1be
00000100: 97ca 18be 78d8 e93d 2111 99bd 1099 333d
00000110: 300c 24be 10db 14bd ca42 29be d956 06be
00000120: dc22 cf3d d203 02be c89a 15be 1c7e 193e
00000130: 00b1 1dbb 201b eb3d 1021 1f3d c053 64bb
00000140: 380c c33d 201e 4bbc ab21 02be 7829 a73c
00000150: 7288 cebd 5309 233e cd16 e8bd 85df 2b3e
00000160: f8f9 83bc bc46 ff3d f75b a63d ac8d 1ebe
00000170: ea18 fb3d 2c89 9c3d 9a0e e8ba c089 16bb
00000180: 732b c33c b880 ee3d 6af7 b13c 7d19 dbbd
00000190: c8a3 2cbe b4af 2f3e a03c debb fee8 a3bd
000001a0: 86f7 1cbe 8c52 2a3e 4bf3 a6bd 6c98 aa3d
000001b0: 5943 3c3e 9889 fe3d 1321 f63d d372 c1bd
000001c0: 20c8 95bb 7d49 0f3e 6ec5 e3bd e16c 0abe
000001d0: e0d0 56bc 1cd0 bc3d b002 2e3c 4a3c 163e
000001e0: 37b6 0ebe 58c6 f83d fdc8 363c a454 143e
000001f0: 703a c33c 4084 853b e726 c8bd 6c8d afbd
00000200: d3e5 b13e 7134 893e 21cb 11be 6ed0 133e
00000210: 41f3 14bf e0f4 903d 836f 41be 9ffa db3e
00000220: 5e51 0bbe 1726 cebe 2635 0b3c 7673 573e
00000230: eb1c 0d3e b557 3fbb 6dbd a1be 3edc 75bf
00000240: 8cf2 183f 719c 04bf f2c9 31be b78e 7dbf
00000250: 587b e33e cafb 6dbe 5fef 873d 4c55 eebe
00000260: ae75 9f3e 265c 093d 35f1 993e a9b7 cd3e
00000270: bcf4 183e 3d4b 7bbd 5855 8dbe cc4d de3d
00000280: 5eda 12bf 1347 f03c e74d 4ebe e7f5 e53e
00000290: f300 c03e db26 b03e 9d41 3cbe e255 773d
000002a0: d2f3 c73d 4634 44be 43b6 8c3e 3108 ee3e
000002b0: 28f7 063f 7596 b13e 5eb8 81be e2e0 3ebe
000002c0: e0ca 963d a69a 1ebe 4f61 b43e 6175 f6bd
000002d0: 1246 cbbe d769 0abe cf49 f6be 471b f63d
000002e0: ccba 403d 91fd ecbe 1b2b ddbe 3e92 33be
000002f0: b5ee 913d 3e78 28be f13b 543e d7a7 fcbd
00000300: 7273 ff3d 53dc d93d b45c 22be 319d 673d
00000310: 657e 85be c4bf 73bd 6d6c 6cbe aa65 44be
00000320: 300a 203e e732 13be b0c7 19bc 32d3 18bf
00000330: 7fe3 223b dbdb 9ebd b53c 40be 92a0 cabe
00000340: e8fc 323d 49eb d3be 2c0d ef3c 9964 dcbe
00000350: ccc0 a23d 58c6 113f 4dc6 263f c66f 0fbf
00000360: fc75 303f 3119 85bd 7e22 1fbe 643a 243f
00000370: 892e 663e 98f4 2bbf 7119 203d aed5 123e
00000380: 667c 7fbe 8ea5 3bbd b5ec 8d3e 1bb4 fb3e
00000390: 3ad3 f33d 78e1 20bd 018b 903d a7a7 8abc
000003a0: 6df7 653d 2ff6 eebd 245b fa3e 4d74 f9be
000003b0: 002d 543e a9f9 203e 29b7 263f ce72 19bf
000003c0: 6703 dabd 4ea4 a73e 141a fa3d 20ea 78bd
000003d0: b7a5 4e3e 169a 01be 5a91 86bd 20fa f43c
000003e0: 34c4 b7bd b5f1 1dbf c7c6 dc3b 0ebc 973c
000003f0: 7424 a53e 310e 833d b258 3a3f 5aee 9c3e
0.09979377 0.22334649 -0.0022271296 0.15256418 -0.31434625 -0.05932668 -0.27491492 0.15981649
0.10560404 -0.22554138 -0.14749587 0.18172322 -0.100295335 -0.07271521 -0.21144381 -0.47740385
0.31777704 -0.42682663 -0.2737286 -0.5651671 -0.22008559 -0.016953662 0.1936908 -0.2564745
0.3763611 0.06671909 0.12315334 0.6005941 0.5012664 0.012682858 -0.061468687 0.092890374
-0.26802912 -0.18892175 -0.20227508 0.32098493 0.02961813 0.36920518 -0.22329257 0.040265717
-0.20969343 0.15578446 0.5433512 0.008066207 0.043544173 0.6711618 -0.22795105 0.10851632
-0.19520752 -0.1679142 0.23291722 0.046622187 0.10757786 0.07098113 -0.20852488 -0.0058263685
-0.033213362 -0.6623363 -0.18254913 -0.030709263 0.29288304 0.10511786 0.40597 -0.37817106
-0.14921032 0.11418241 -0.0747397 0.043847144 -0.16020274 -0.036341727 -0.16529384 -0.13119067
0.10114071 -0.1269677 -0.14609826 0.14989513 -0.00240618 0.11479783 0.03884989 -0.0034839958
0.09523815 -0.012397319 -0.12708156 0.020405516 -0.10084619 0.15921526 -0.11332474 0.16784485
-0.016110405 0.124646634 0.0812301 -0.15483731 0.12260611 0.07643351 -0.0017704547 -0.002297029
0.02382443 0.11645645 0.021724422 -0.10698221 -0.16859353 0.17156869 -0.0067821294 -0.08003424
-0.15328798 0.16633052 -0.08151873 0.083298534 0.18385066 0.12428588 0.12018027 -0.09445729
-0.004570976 0.13992877 -0.11121641 -0.13518097 -0.013111323 0.09219381 0.010620758 0.14671436
-0.13936697 0.12147206 0.011156318 0.14485413 0.023831576 0.0040746033 -0.09773045 -0.08571896
0.34745654 0.26797822 -0.14237644 0.14434978 -0.58183676 0.07077956 -0.18890195 0.42964646
-0.13605258 -0.40263435 0.008496558 0.21040139 0.13780563 -0.0029196565 -0.31589833 -0.9603919
0.597451 -0.5180121 -0.17362192 -0.9904589 0.4443004 -0.23240581 0.06637453 -0.4654945
0.3114447 0.033535145 0.3006684 0.40179184 0.14937109 -0.06135105 -0.27604175 0.10854682
-0.5736445 0.029330766 -0.20146905 0.4491417 0.37500724 0.34404644 -0.18384404 0.06038464
0.09763302 -0.19160566 0.27482805 0.46490625 0.5272088 0.34685102 -0.25335974 -0.18640473
0.07362914 -0.15488681 0.3523049 -0.12034107 -0.39701897 -0.13516937 -0.48103186 0.120169215
0.047053143 -0.46287206 -0.4319695 -0.17536256 0.07125608 -0.16452119 0.20725991 -0.123367004
0.12473191 0.10637727 -0.15855676 0.056546394 -0.26072994 -0.059509054 -0.23088236 -0.19179407
0.15628886 -0.14374886 -0.009385988 -0.5969726 0.0024854837 -0.07756778 -0.18773158 -0.3957563
0.04369822 -0.41390446 0.029181086 -0.430455 0.07946929 0.56943274 0.6514633 -0.5602993
0.6893003 -0.064989455 -0.15540501 0.641516 0.22478689 -0.67170095 0.039086763 0.14339325
-0.24949798 -0.045812182 0.27719656 0.49160847 0.11905523 -0.039277524 0.07057763 -0.016925646
0.056144167 -0.116680495 0.4889766 -0.48721543 0.20720291 0.15720238 0.6512323 -0.59940803
-0.1064518 0.32742542 0.12212005 -0.060770154 0.20180403 -0.12656435 -0.06570692 0.029904425
-0.0897297 -0.6169694 0.0067375633 0.018522289 0.32254374 0.06399191 0.7279159 0.30650598

sequential_63_1/dense_127_1/BiasAdd/ReadVariableOp:0 f4 [64]
00000000: c2d6 81bd 8724 c83d 9419 b33b bc63 cabb
00000010: a3fd 42bd 3833 dcbb 49df 53be 1b79 30bd
00000020: 5fb2 39bd 5741 1d3d 1fc6 cebc d845 9e3d
00000030: 858e dbbb ee95 31bc 1507 03bd 31e1 54bb
00000040: c7d3 f63d dd1f 81be 999b d4bd acc8 563e
00000050: d925 aa3e 5b91 693d c84f 283e 88e0 7cbd
00000060: a686 4ebe d29d b5bc ecbf 683d e4a0 cfbd
00000070: 74e7 4c3e b690 1abe 7f5c 5ebd 39c5 76bd
00000080: bd3f 26bd f123 fabc 8813 10bd e04b 0ebc
00000090: bc95 87be 9509 3ebe 9bcc 55bd 05a2 13bd
000000a0: a137 2bbd 0000 0000 b56f 8dbc 4be8 3b3e
000000b0: baf5 48be 3dd3 81bd ab54 96be 91ed 0abe
000000c0: 6ce6 cebb 36be 17be 3512 95be fd51 cfbc
000000d0: b3bf 9c3d 7d52 04bd ed0a 2dbe 5374 35bd
000000e0: 4fc4 2cbd d49a 62be cb4a 123e a5da c6bc
000000f0: de7d 17bd 3d86 12bc 9325 5fbd 9642 28be
-0.0633979 0.09772592 0.0054656956 -0.00617644 -0.047605168 -0.006719973 -0.20690645 -0.043084245
-0.045336124 0.03839239 -0.025240956 0.077281654 -0.0067003393 -0.010838969 -0.031989176 -0.0032482857
0.12052112 -0.25219622 -0.103812404 0.20974988 0.33232 0.057023387 0.16436684 -0.061737567
-0.20168552 -0.022169981 0.056823656 -0.10138109 0.20010167 -0.15094265 -0.05428743 -0.06024668
-0.04058813 -0.030534716 -0.035174876 -0.008685082 -0.26481426 -0.18558343 -0.05219708 -0.036043186
-0.0418011 0.0 -0.01726518 0.18350331 -0.19624987 -0.06339119 -0.29361472 -0.13567187
-0.0063140895 -0.14818653 -0.29115453 -0.02530765 0.07653751 -0.03230523 -0.16898699 -0.04430039
-0.042179402 -0.22129375 0.14286344 -0.02427418 -0.03698527 -0.008943138 -0.054479193 -0.1643165

sequential_63_1/conv1d_204_1/convolution/ExpandDims_1:0 f4 [32, 32, 1, 3]
00000000: 5d97 b53e 009f 15bf 086e d13d 8f9d cf3d
00000010: cb87 893e 6bd9 163b 5c6f 3c3d 82fd e13d
00000020: 25d0 b7bd 5e6a 0c3e 4b87 523e 00e4 6c3e
00000030: 71ef 3c3e 924b abbc 7be7 5bbe db17 3ebe
00000040: cb67 d03b 4ba9 ac3b 755c 9bbd cbb1 d73d
00000050: 88b2 b6bc db98 073e 52b8 7f3d 7d45 643e
00000060: 08e1 0b3e 75c2 1f3e 6780 1b3e f478 2ebe
00000070: 0826 1a3e b2e9 8e3d 7181 dfbd 37af 4cbe
00000080: bd3d 7cbe 94aa 543d 88d4 1bbd 3808 1b3d
00000090: a4f7 8ebe af9d c13e f465 1a3e b734 193e
000000a0: c3a5 093e c8de febc 437f 02bf b090 a03e
000000b0: e8da b33e 8062 f1bd e624 a3bd 60eb 28bd
000000c0: 88d1 c1bd 2823 35be 0f49 4cbe 992d b43d
000000d0: ab56 05be d9f7 9b3d 69ef 1e3e da87 cb3d
000000e0: 6518 d4bd 4402 79be c7e4 8e3d 4291 adbd
000000f0: 9db4 023e aa85 f53d 6400 4c3d a49a 04be
00000100: d3a3 ed3d 6550 713c f503 04be eaef c93d
00000110: 60fe c8bd 1b51 6c3e df0c 74be ad97 16bf
00000120: c73e 053e 9450 e4bd 623c 1dbe bc1c 8f3e
00000130: 082a 11be 46c6 58be 85ea 2a3e 60f5 cf3b
00000140: 777a 0b3e 6e8e 383d 21d9 23be 533f f63d
00000150: 7041 00be 28c9 e7bd 47b1 3a3d 12d6 6ebe
00000160: b62d 9ebc 3752 003e cf53 273e e887 c6bc
00000170: 68b9 853d 8ccc 65bd c856 c9bc e849 0cbd
00000180: ad7d aa3d 047e 2abe a2f6 9bbd 30fe 86bd
00000190: cd01 02be f059 17be e31d 283e 7207 c2bd
000001a0: be9b a03d cad2 953d cd5a 5cbe 3a7e 043d
000001b0: ceab 16bc 9470 16be 5427 0d3e 2619 a03d
000001c0: c8bd c53c b875 8d3d 9aca 8c3d 467f 69bd
000001d0: 8bad aabd c24c 3f3d 7cc7 10be 7616 35be
000001e0: 73f9 d5bc 4a1f 4abd c4e7 223d bb63 abbd
000001f0: a41f 27be 384d 503d 17f2 d8bd 9cd1 44be
00000200: 7e15 dcbd faa0 8bbd a2ea ca3d b8ce b9bd
00000210: 145c 57be 1bcc 10b9 3f98 ffbd 2c2d 3d3d
00000220: 3be3 34be 875a 1e3e 9d74 7cbd 320b 0c3e
00000230: a768 c53d 0834 4b3d 006a aa3c 1992 103e
00000240: 573d e93d 8eb8 50bd c0f6 d43d 6a5d 0bbe
00000250: 7fb8 a9bc 2339 31be 8dcd 103e 801e ebbd
00000260: 6c56 1f3d 0b69 46bd 4838 fb3d f5c4 0abb
00000270: 1b5e 11be aaa4 e63d d1dd b5bd 6c0b 8c3d
00000280: 1bd6 893d bc6b 3bbe e6b2 1ebe 0662 f4bd
00000290: 7851 293d f548 2fbe b345 0f3d 971a 45bd
000002a0: ce50 8fbc a01b 1bbe aa1c 33be 92b8 bf3d
000002b0: 0a4f 313d 67be 9f3d a3c9 02be 4851 edbc
000002c0: 57d5 e9bd 97b8 1bbe 42cb 923d 00d5 45bb
000002d0: 062b b43d b900 0cbe eecf b6bd a863 a7bd
000002e0: 4a6c 7cbc 397c 14be 1b6e 033e a65c 0ebe
000002f0: 5f0b 15be 1454 3ebd 6c5c 28be 1baa 1b3e
00000300: 43bc 903d 86cc 943d 55e1 a83e 2ac7 cc3d
00000310: 3e4b c5bb 1079 343e ae9f 81bd f62d cd3d
00000320: e4c5 0d3d fd1a 8fbd 5b1a cbbe 8db5 0e3f
00000330: 52b2 a5bd 3388 453e d5a4 e5bd 7475 d23d
00000340: ee75 a03c e70e 213d 16af 98bc 8807 28bd
00000350: f5a9 f3bd 0581 02be e5c6 a73e b843 d5bd
00000360: c362 1cbe 2b0d ddbe bcd4 353e 5ff1 19be
00000370: 158b ffbd 3477 6abd 302f b6be b05c f0bd
00000380: f6c7 1bbe 7991 0a3e 0378 97bd e524 34be
00000390: f6d8 adbe 21b5 58be 4206 b43e b12a 033e
000003a0: 70a9 1dbd 4815 06be c0c1 1ebe a80a 06bf
000003b0: ef13 fb3e 0dc6 e8bd 5ddd b03d e1ef 9dbd
000003c0: 7b2b 77bd 8768 433e 73fa 073e 48ed 5dbd
000003d0: ccec a53e 72d4 813d 634b c3bd bdf5 cbbd
000003e0: 0f5d 4d3d b876 22be 9c0c 09be 9b4e c33d
000003f0: 4281 d5bd 6ddc 463e 9f60 2cbd 0bb0 8bbd
0.35467044 -0.5844574 0.10226065 0.10137474 0.26861414 0.0023017775 0.046004638 0.11034681
-0.08975247 0.13712451 0.20559423 0.2313385 0.18450715 -0.020910058 -0.21475022 -0.18563788
0.0063600293 0.0052692047 -0.07585994 0.10531958 -0.022301927 0.13241903 0.06243164 0.22292133
0.13660061 0.15601523 0.151857 -0.17038327 0.1505357 0.069781676 -0.10913361 -0.19988714
-0.24632926 0.05192049 -0.038044482 0.037849635 -0.2792331 0.37815616 0.15077955 0.14961515
0.1344214 -0.03111209 -0.50975436 0.31360388 0.3512795 -0.117863655 -0.07966022 -0.041240096
-0.09463793 -0.17689192 -0.19949745 0.087977596 -0.13021342 0.076156326 0.15521015 0.09938021
-0.103562154 -0.2431727 0.069772296 -0.08474971 0.12764211 0.11988385 0.04980506 -0.12949616
0.116035126 0.01472864 -0.12892134 0.09860213 -0.09814143 0.23077814 -0.23833035 -0.5882519
0.13012229 -0.111481816 -0.15355065 0.2795161 -0.1417619 -0.21169385 0.16691025 0.0063463897
0.13620935 0.045057707 -0.16000797 0.12023797 -0.12524962 -0.113176644 0.04557922 -0.23323849
-0.019308906 0.12531362 0.16340564 -0.024234727 0.06529504 -0.056103274 -0.024577513 -0.03425017
0.08324752 -0.16649634 -0.07615401 -0.06591451 -0.12696 -0.14780402 0.16417651 -0.09474076
0.078422055 0.073155954 -0.21519013 0.03234694 -0.009196235 -0.14691383 0.13784534 0.07817297
0.024138346 0.06907219 0.06874581 -0.057006143 -0.08333882 0.04670406 -0.14138597 -0.1768435
-0.026119923 -0.049346246 0.03977181 -0.083686315 -0.16320664 0.05085489 -0.1059305 -0.19220585
-0.10746287 -0.06817813 0.09908034 -0.090726316 -0.21031219 -0.00013808945 -0.124802105 0.046185657
-0.17664807 0.15464221 -0.06163465 0.13676146 0.096391015 0.049610168 0.020802498 0.14118232
0.11388653 -0.050957255 0.10398626 -0.13609853 -0.020717857 -0.17306952 0.14140911 -0.11480427
0.038900778 -0.04844002 0.12266594 -0.0021174524 -0.14196055 0.11261876 -0.08880199 0.06838116
0.067302905 -0.18302816 -0.15497932 -0.11932759 0.04133746 -0.17117675 0.03497858 -0.04812106
-0.017494585 -0.15147257 -0.17491403 0.09361376 0.04328827 0.07799988 -0.12772231 -0.028969422
-0.114176445 -0.15207134 0.071676746 -0.0030186772 0.087972686 -0.1367215 -0.08926378 -0.08173305
-0.0154066775 -0.14500512 0.1283497 -0.1390253 -0.14555119 -0.046466902 -0.16441506 0.15201609
0.07067158 0.07265572 0.32984415 0.09998925 -0.0060209325 0.17624307 -0.063292846 0.10018532
0.03461255 -0.069875695 -0.39668545 0.55745775 -0.080906525 0.19290237 -0.1121308 0.10276309
0.019587483 0.039320853 -0.018638175 -0.041022807 -0.11897651 -0.1274453 0.32768932 -0.10413307
-0.1527205 -0.4317411 0.17756933 -0.15033482 -0.124777 -0.057242587 -0.35582876 -0.11736429
-0.15212998 0.13532056 -0.07395937 -0.17592199 -0.3395459 -0.21162845 0.35161024 0.12809254
-0.038491666 -0.13094056 -0.15503597 -0.5236001 0.49038646 -0.113659 0.08635972 -0.07711769
-0.0603442 0.19082843 0.13279133 -0.054181367 0.32407224 0.06339349 -0.09535863 -0.0995898
0.050137576 -0.158656 -0.13383716 0.09536477 -0.104250446 0.19420023 -0.042084333 -0.06820687

sequential_63_1/conv1d_203_1/convolution/ExpandDims_1:0 f4 [32, 32, 1, 3]
00000000: 8f59 113f 611c d93e e275 4fbe 5735 87be
00000010: 9086 903e 737a 7cbc 1ef0 a5be 6cba 803e
00000020: 5eab 9a3c e089 cf3c e58e 17be a0bc 7dbc
00000030: 4a73 de3d 3e2c bc3d a041 083d 98c8 c7bc
00000040: e039 ee3b 808d 3fbd 91b4 233e 8220 29bf
00000050: 6341 28bf bcb3 3fbd 30a3 393d 8aba e0bd
00000060: 9904 0e3f b9f9 d1be 92c0 22bf f057 d63c
00000070: 60fa b2bd a747 26be 04b3 773d 788d 5d3e
00000080: 42e3 293d 3706 753f 9b5b 233f 7ba8 03bf
00000090: 319c b03f 70be 4a3f ddab b5be c754 c7be
000000a0: e6b8 a63e bc5a e43c 35a9 d73c 4bf8 243d
000000b0: 70fb 823d 23c2 773f cc50 a83c 4005 10bf
000000c0: c072 ecbd cc60 11bd 2af5 833d 007f 3dbe
000000d0: 78c8 273e 5dee 213d 4331 c8bd 585f 5d3e
000000e0: e6ba 37bd 7453 403d cc20 163d 705a 0cbd
000000f0: 34d4 5f3e 02c4 8fbe 2d5a debe 921a a8be
00000100: 218a 963d 6218 7e3e c0bf 88bd 9139 003e
00000110: cee7 c63d 16ca a23d c4be 0f3d 329c 91bd
00000120: 2597 2bbe 9452 833e d1b8 203e 43bc bbbb
00000130: 3c90 ef3e 341b 5c3e b2a5 1ebe faff c8bc
00000140: 465c cc3d 7aaa f0bd 004e a6bc 2058 e7bd
00000150: bda3 043f c976 133f e110 e03d ba1f 6d3f
00000160: 7f80 013f 1fab 30bf 8044 ec3b 8930 053e
00000170: e008 81bb 30fb 82be 08ba c43d 8a7b c13d
00000180: 099e 33be 37ad cabc 139e 46bc 90da b5bc
00000190: 4c7a bd3d 144c b7bd f992 053d e83f 49bb
000001a0: 68a2 72bd 5c62 efbd 36f1 873d b8c9 10be
000001b0: 6834 1abd 46ee c93d b1cb 043e 340a 3d3d
000001c0: a8bb 10be 9104 323e d936 033d f956 f63d
000001d0: 4e53 5d3d cfd8 34be 001b 92ba a0bf 5c3c
000001e0: 3e25 c7bc b6ff d4bd fd3f 4bbd fc66 603d
000001f0: d87e be3c 9ac5 31be 9a1c d03d d2e6 a9bd
00000200: e8d0 ce3d d360 113e cbf9 353b 68f9 26be
00000210: 4714 5fbd ebdc 0abd 81ef 143e 46f9 d1bd
00000220: fbe8 d0bd 0cf1 24be a0ac dabd 97ce 8cbd
00000230: 6759 013e 777e f13d f347 11be 5028 20be
00000240: 34f9 4a3d 44d7 20bd 6c1a 35bd 9a9c a63d
00000250: 75da fbbd 2275 db3d c1f9 1f3e 25a6 b9bd
00000260: 8d48 b0bd 6695 e63d 65b8 013e b67d bd3d
00000270: 8a8e ce3d c387 e1bd 567b 223d 10b1 1abe
00000280: 3bf8 23be 5485 3a3c 6a50 a33d b04c 013d
00000290: 4eaa fd3d b878 b9bd 7e52 0ebe 7195 313e
000002a0: ebbf e73d cb1d 75bd 22ce cc3d 1037 793d
000002b0: 63ba 033e 6505 0fbe 7f1c 313d c424 37bd
000002c0: c0ab 163d 8e8d de3d d30f 0e3e fc42 8e3d
000002d0: bfca 7e3d e32b 7a3d 049d fbba b7d5 46be
000002e0: ddb1 e93d a8ab 3abe e081 a33b d014 aa3c
000002f0: f857 a43c d31a 263e 96ca 213e 7d39 3ebe
00000300: 9606 e03d 3ac8 ad3d 8e75 8bbd d4ab d6bd
00000310: 7ae4 30be a8fc 79bd 8559 acbd e63c d83d
00000320: ac09 dcbd 7644 df3d 5490 32bd 0019 d23b
00000330: b51d 123e 8c35 663d e881 8fbc c0af 753b
00000340: d046 553d fed7 0abe 83f5 88bd 4e16 c03d
00000350: 370d f4bd 4c21 1abe acff 77bd 3cfe 85bd
00000360: 3564 123e c2fb d53d 34a6 ddbd ae50 da3d
00000370: 581a e8bc f10e 0a3e 4775 bcbd 3065 f63c
00000380: b55c b3bd d680 2fbe 1069 5d3d 6a64 b83d
00000390: 9d59 0d3e 31c3 d5bd e4b2 4cbd 1237 b93d
000003a0: dd9d 083e 47f3 11be 9ad3 9cbd bf1b 193e
000003b0: bce6 5f3d c82b efbd c0d3 43bb 41b6 c2bd
000003c0: 4030 46bb 263d d23d 9ec8 01be 5a04 d3bd
000003d0: 502f 5ebc a584 2f3e 3348 1abe c075 db3b
000003e0: d050 b0bd f234 a43d e163 113e 90ed 46bd
000003f0: f8a3 a5bc a362 0a3e e504 093e 8b02 003e
0.5677728 0.42404464 -0.20259812 -0.26407883 0.28227663 -0.015410054 -0.32409757 0.2514223
0.018880542 0.025334299 -0.14800604 -0.015486866 0.108618334 0.09188126 0.03326571 -0.024387643
0.007270083 -0.046765804 0.1598685 -0.6606523 -0.6572477 -0.046802267 0.045321643 -0.109730795
0.55475765 -0.41010836 -0.6357509 0.026164979 -0.087391615 -0.1623827 0.060473457 0.21635997
0.041476496 0.9571261 0.63811654 -0.51428956 1.3797666 0.79196835 -0.35482684 -0.38931867
0.3256294 0.027875297 0.026325801 0.040275853 0.06395614 0.96780604 0.02054634 -0.5625801
-0.11545324 -0.035492703 0.06443246 -0.18505478 0.16385067 0.03953396 -0.09775021 0.21618402
-0.044855975 0.046954587 0.03665237 -0.034265935 0.21858293 -0.2807923 -0.43428174 -0.32832772
0.07350565 0.24813989 -0.066771984 0.1252196 0.09712182 0.07948701 0.035094038 -0.0710987
-0.16756876 0.2564894 0.15695502 -0.0057292297 0.4678973 0.21494752 -0.15492895 -0.024536122
0.09978537 -0.11751266 -0.020300865 -0.112961054 0.51812345 0.57603127 0.109407194 0.92626536
0.50586694 -0.6901111 0.0072103143 0.13006796 -0.0039378256 -0.25582266 0.09605795 0.09447391
-0.17540754 -0.024740798 -0.012122649 -0.022198945 0.09251842 -0.089500576 0.032610867 -0.0030708257
-0.059236914 -0.116886824 0.06637804 -0.1413945 -0.037647635 0.098599 0.12968327 0.04615231
-0.14134085 0.17384554 0.03203473 0.120283075 0.054034524 -0.17660831 -0.0011146963 0.013473421
-0.02430975 -0.104003355 -0.04962157 0.054785714 0.023253843 -0.17360535 0.10161705 -0.082959786
0.100984395 0.14197092 0.0027767296 -0.16306078 -0.054462697 -0.03390209 0.14544488 -0.10252623
-0.102006875 -0.16107577 -0.10677457 -0.068753414 0.1263176 0.117916994 -0.14187603 -0.15640378
0.049554065 -0.039267793 -0.04421465 0.08135338 -0.12297527 0.10715701 0.15622617 -0.09064893
-0.08607588 0.11258964 0.12667997 0.09252493 0.10085781 -0.110122226 0.039668404 -0.15106606
-0.16012661 0.011384327 0.07974322 0.031567276 0.12385999 -0.090562284 -0.13898656 0.17342164
0.11315902 -0.059842866 0.10000254 0.060843527 0.1286407 -0.13966902 0.043240067 -0.044712797
0.036784887 0.10866843 0.13873224 0.0694637 0.062205072 0.06107701 -0.0019196575 -0.19417463
0.11410878 -0.18229544 0.0049898475 0.020761877 0.020061478 0.1622117 0.15799937 -0.18576618
0.10938756 0.08485456 -0.06809531 -0.10481992 -0.17274657 -0.061031967 -0.08415512 0.105584905
-0.10744032 0.1090173 -0.043594673 0.0064116716 0.14269145 0.05620341 -0.017517999 0.0037488788
0.052069485 -0.13558957 -0.06687453 0.09379254 -0.11916583 -0.15051764 -0.060546562 -0.06542632
0.14296038 0.104484096 -0.10822716 0.1065992 -0.028332874 0.13482262 -0.092020564 0.030077547
-0.08757917 -0.17138991 0.054055274 0.090035275 0.13803716 -0.104376204 -0.04997529 0.09043707
0.1334147 -0.14252959 -0.07657547 0.1495199 0.054663405 -0.116782725 -0.0029880852 -0.095074184
-0.0030241162 0.102655694 -0.12674186 -0.10303564 -0.013561085 0.17140444 -0.15066604 0.0066973865
-0.08609164 0.08017911 0.14198257 -0.0485664 -0.020219788 0.1351419 0.13380773 0.1250097

sequential_63_1/conv1d_202_1/convolution/ExpandDims_1:0 f4 [32, 1, 1, 3]
00000000: 5539 86be b10e 58bd de6b e63e 23d2 193e
00000010: a45d 693e 3420 9e3e 5c59 563e 6cf8 053e
00000020: 1f8a 8b3e 8e4e 39be aa6e 153e de7b b2bd
00000030: e8fa 84bc 8aa5 efbd a0e2 833c de47 06be
00000040: 30a3 bd3d 2cff 45bd 0bea de3d afbb 53be
00000050: 1f44 46bd 7129 75be 6007 913c b305 58be
00000060: 09dd 863d dce9 8ebe d7ae 123c b4e3 24be
00000070: 5254 bebd f05f 1cbe a161 0abe 4a4a 933e
00000080: f5fa 833e 71cf 70be ec74 3b3d c293 4f3d
00000090: a097 5abe 6b0b 24be 1d8b 893e 2be0 eb3d
000000a0: ccb8 783e 8c3a 26bb 88ca 383d d72c 7ebd
000000b0: 517f e3bb ae82 55be f35f c9bd 7b98 fb3d
000000c0: 6ec3 363e 3b8b 64be 3cf1 77be e8e6 683e
000000d0: ec3f d2bc b5ac 40bd ad5b 323e 3e2c b03e
000000e0: 593e 4b3e 20fe 333d 8a07 67be 6c09 c63d
000000f0: 3966 973d 5224 43be 544e 1ebd aade bc3e
00000100: d145 8e3d dd4d 943e 7a49 31be 0be5 64be
00000110: 009d 533d 080a 76bd 00a0 14bb f614 5cbe
00000120: a8cf 8f3d 7dda 4b3e 5aa5 2f3e 6160 14bd
00000130: 892a 593e 9f5d 183e 969a 2bbe bbba 71bd
00000140: 69b1 f33d acea 7abd aeda 36be 0468 3cbe
00000150: 1df9 10be 4ce1 d83b b06e b43e f755 4fbe
00000160: 89ce 34be e734 513e a4b0 33be eed9 48be
00000170: 005a 9a3d 0a3b 9b3e ba7f 82bd 2624 523e
-0.26215616 -0.052748386 0.4500417 0.15021567 0.22789627 0.30883944 0.20932525 0.13083047
0.27253816 -0.18096372 0.14592996 -0.08715032 -0.016232923 -0.11701496 0.016099274 -0.13113353
0.09259641 -0.048339054 0.10884484 -0.20677064 -0.04840481 -0.2394159 0.017703712 -0.21095924
0.06585128 -0.27912796 0.008952818 -0.16102487 -0.092934266 -0.15270972 -0.13513805 0.28767616
0.25777403 -0.23516633 0.045765802 0.050678022 -0.21346903 -0.1601998 0.26863948 0.11517366
0.24289244 -0.0025364487 0.045115024 -0.06205448 -0.0069426675 -0.20850632 -0.09832754 0.12284943
0.17847988 -0.22318737 -0.24213117 0.22744334 -0.025665246 -0.047039706 0.17417784 0.34408754
0.19848002 0.043943524 -0.2256147 0.09669766 0.07392544 -0.19056824 -0.03864892 0.3688863
0.0694691 0.28965655 -0.17313185 -0.22352998 0.0516634 -0.06006816 -0.0022678375 -0.21492371
0.07022029 0.19907565 0.1715292 -0.036224727 0.21207632 0.14879464 -0.16758189 -0.05901597
0.11899073 -0.061258957 -0.17856857 -0.18399054 -0.14157529 0.0066186544 0.35240698 -0.20247637
-0.17656912 0.20430337 -0.17547852 -0.19614384 0.075366974 0.3031848 -0.06372018 0.20521602

const_fold_opt__90 f4 [1, 32, 1]
00000000: 802e 0cbe 846c b4bc f7db 5fbe 0e88 00be
00000010: 409d ddbd 0b19 34bd 0000 0000 47b8 08bd
00000020: f69b 64be b673 cd3c dc92 2fbd 5a16 e9bd
00000030: 0000 0000 ec82 02be 3b28 a1bc 2dc9 19be
00000040: 6810 4cbe e316 87bc 6070 79be 461c debd
00000050: b48e c2bc 7d4f 0fbe 6e00 ae3c f175 26be
00000060: 72ed 8ebd 0781 dfbc 797f 03bd 4b80 bfbc
00000070: 255c 78be 7e1a 81bb 5c39 bbbb 0e7d 20bc
-0.13689613 -0.0220244 -0.21861254 -0.125519 -0.10821009 -0.043969195 0.0 -0.033378866
-0.2232512 0.02507959 -0.042864665 -0.11381216 0.0 -0.12745255 -0.019672504 -0.15018149
-0.19928133 -0.016490405 -0.24359274 -0.108452365 -0.023749687 -0.13995166 0.02124044 -0.16255929
-0.06978883 -0.027283205 -0.03210399 -0.023376605 -0.242539 -0.0039399257 -0.005713625 -0.00979544

const_fold_opt__106 f4 [1, 32, 1]
00000000: f8d5 2cbe 26da fe39 0000 0000 4325 d73d
00000010: ef70 14be 3855 ccbc 938b 33bc c508 4ebe
00000020: be0a ba3d 8936 94bc 24ad cf3d 0000 0000
00000030: ea11 083e 0000 0000 0b91 183e 342a 1cbd
00000040: 1057 1fbe 7293 11be 4460 5dbd 4704 7d3d
00000050: 14b5 dbbb 0772 a7bd 3800 85bc ebe5 12be
00000060: 42f3 b9bd 8cc3 95bd 0000 0000 865b b1bc
00000070: e773 c7bc 1b1c 4d3d 0000 0000 0000 0000
-0.16878498 0.00048609189 0.0 0.10505154 -0.14496206 -0.02494298 -0.01095857 -0.20120533
0.0908408 -0.01809241 0.10140446 0.0 0.13288084 0.0 0.1489908 -0.038126186
-0.15560555 -0.14216402 -0.054046884 0.061771657 -0.006704936 -0.08176046 -0.016235456 -0.14345519
-0.09079601 -0.07312688 0.0 -0.021650087 -0.024347259 0.05007563 0.0 0.0

const_fold_opt__100 f4 [1, 32, 1]
00000000: e4d9 babd afed 72be 5a6b 74be 0000 0000
00000010: 0000 0000 0000 0000 f7fe 553e 0000 0000
00000020: 6376 983e 0000 0000 25bb 4ebe 617e 233e
00000030: 91f6 143e 8a67 64be a4c1 8abc dffe 843e
00000040: 0000 0000 0a15 a5bd 2f54 86be 0000 0000
00000050: 9049 633e e704 82be 0000 0000 0000 0000
00000060: 2f97 81be e1c3 3dbe 7790 a6bb 0000 0000
00000070: 85fc 14be e526 7d3e 0000 0000 0ad6 75be
-0.091235906 -0.23723482 -0.23869076 0.0 0.0 0.0 0.20898043 0.0
0.29777822 0.0 -0.20188577 0.15966178 0.14547183 -0.22305122 -0.016938038 0.259757
0.0 -0.080606535 -0.26236102 0.0 0.2219603 -0.25394365 0.0 0.0
-0.25310656 -0.18531753 -0.0050831395 0.0 -0.14549454 0.24721868 0.0 -0.2400743
