models/fully_connected_70.01_20250408091307/model_250.onnx (onnx, 266606 bytes, 8 tensors)

sequential_1/dense_3_1/Cast/ReadVariableOp:0 f4 [128, 7]
0.8094137 0.049798388 0.3149549 -0.19684222 -0.40278792 -0.33472544 -0.13934314 0.036880773
-0.03798502 -0.44285172 0.18552893 -0.4790284 0.114385925 0.0014851143 -0.13373828 -0.18184671
-0.085108705 0.08477238 0.15246049 0.12923677 0.14754498 -0.107181266 0.19917639 0.04750793
0.13894932 -0.009631203 0.04422742 0.20293592 -0.11502412 0.52470326 -0.5546655 -0.4730015
-0.25030646 0.79843605 -0.24922548 -0.16424201 -0.09076159 0.1770131 0.11564073 -0.03421071
0.099394426 -0.05711915 -0.06705254 0.08372391 -0.102056816 -0.0007397498 -0.24030274 -0.15678354
-0.13781518 0.10833192 -0.012358552 -0.037341073 -0.15900622 0.109674975 -0.012754184 0.1783902
0.1985559 0.09506413 0.040731564 0.17387831 0.13150062 -0.6755937 -0.28821355 -0.02232739
0.1472216 -0.103806704 -0.04143835 0.023324745 0.111474425 0.010504386 -0.009430675 -0.23848687
0.3047081 0.25273854 0.17972083 -0.3898195 0.1642253 0.2487813 0.061816905 0.039913453
-0.59517545 0.03742188 -0.5836196 -0.05051239 -0.19981132 -0.36437824 0.23526871 -0.034322053
-0.021126965 0.009240746 0.15106928 -0.02642073 -0.04609125 -0.10082968 0.01475443 0.10390458
-0.06340289 0.110936604 0.06092468 0.14205559 0.12209932 0.13473344 -0.27493516 0.046553697
-0.11201123 -0.107315555 0.0723679 -0.06398028 0.06921358 -0.22620426 0.08607226 0.06666782
-0.050164524 0.16778235 -0.6369721 0.19702975 0.4133286 -0.6429511 -0.14257206 0.11323879
-0.11501008 -0.043376878 0.06834335 -0.13330682 0.04925557 -0.106536366 -0.2588335 0.09721876
0.018660009 0.068393655 0.4741745 -0.16046579 -0.34201935 -0.0742049 0.08121494 0.017704649
0.008473411 0.44869733 -0.2929325 -0.39955387 -0.45895135 -1.0661662 0.0729169 0.5670779
-0.21404026 0.0880103 -0.6488844 0.10697544 0.1266196 -0.17308903 0.14658493 -0.7525971
-0.032330777 -0.56135714 -0.32282642 -0.07916147 -0.27451462 0.22168273 0.029516732 -0.05656157
-0.1525965 0.28491548 0.19993562 0.3882568 0.11703355 -0.07251866 -0.810496 -0.2049889
0.8304189 -0.4558498 -0.0072230273 0.30238676 -0.3948716 -0.1579901 -0.22890623 -0.14441082
-0.009580979 0.28033546 0.26149467 -0.22124074 -0.031299803 0.29417238 -0.2812124 -0.6517846
0.088671945 0.37459263 0.38064733 0.2788268 0.0648236 -0.31378326 -0.43476582 0.23123416
-0.1645299 0.5964914 -0.4411029 0.22624531 -0.14153899 0.41259763 0.22766091 -0.076349705
0.105980545 -0.6567965 -0.44843867 0.31821182 0.11587482 0.13692309 0.2109768 -0.07614741
-0.32193866 -0.4325212 -0.10886733 0.043807443 0.094816186 -0.12342712 -0.13776651 -0.01936079
0.1683008 0.013300667 0.19131668 -0.2828846 0.057632327 0.15515772 0.09541117 -0.27957532
0.13641429 -0.1452991 -0.61173177 -0.39153832 -0.3360978 0.14315864 0.25922745 0.34538335
0.08017464 0.31082562 0.09661534 -0.55776256 0.052372504 -0.008738373 -0.20400432 -0.059273086
-0.56873024 0.14833872 0.02234585 0.3195359 -0.19110462 -0.2828861 -0.10738302 0.38514033
0.12252192 0.27739882 -0.643871 0.14068015 -0.045136828 0.18070643 0.06819569 0.08715059
00000000: bc35 4f3f 65f9 4b3d c541 a13e 0291 49be
00000010: 383a cebe 2261 abbe f8af 0ebe 4b10 173d
00000020: 2e96 1bbd 76bd e2be 4cfb 3d3e 3643 f5be
00000030: 2b43 ea3d 2ba8 c23a b0f2 08be 0636 3abe
00000040: 794d aebd 249d ad3d 9a1e 1c3e a556 043e
00000050: 0816 173e da81 dbbd e5f4 4b3e ad97 423d
00000060: bb48 0e3e 31cc 1dbc d027 353d 6fce 4f3e
00000070: c491 ebbd f452 063f 8ffe 0dbf 412d f2be
00000080: 2b28 80be 4e66 4c3f f734 7fbe 0f2f 28be
00000090: 36e1 b9bd ec42 353e 0cd5 ec3d 8820 0cbd
000000a0: 4e8f cb3d c5f5 69bd d852 89bd 7177 ab3d
000000b0: 2a03 d1bd c5eb 41ba ec11 76be dd8b 20be
000000c0: 6c1f 0dbe 20dd dd3d 867b 4abc f4f2 18bd
000000d0: 87d2 22be 469d e03d edf6 50bc ecab 363e
000000e0: 3d52 4b3e fcb0 c23d 24d6 263d 280d 323e
000000f0: 19a8 063e b5f3 2cbf ba90 93be eee7 b6bc
00000100: 42c1 163e 9c98 d4bd 42bb 29bd 8913 bf3c
00000110: b44c e43d 971a 2c3c 1e83 1abc e735 74be
00000120: b302 9c3e f266 813e bd08 383e 6c96 c7be
00000130: ad2a 283e 86c0 7e3e b933 7d3d 4a7c 233d
00000140: 6b5d 18bf af47 193d 1868 15bf 14e6 4ebd
00000150: 579b 4cbe c98f babe 48ea 703e 4895 0cbd
00000160: 7512 adbc 7f66 173c e8b1 1a3e 4970 d8bc
00000170: 2eca 3cbd cb7f cebd 91bc 713c edcb d43d
00000180: 60d9 81bd bb32 e33d 288c 793d 0577 113e
00000190: 350f fa3d 90f7 093e 4dc4 8cbe 17af 3e3d
000001a0: 2566 e5bd 42c8 dbbd 9f35 943d 1808 83bd
000001b0: d9bf 8d3d 17a2 67be a746 b03d 2389 883d
000001c0: 5179 4dbd 23cf 2b3e 9b10 23bf 2bc2 493e
000001d0: ce9f d33e 7198 24bf 69fe 11be bde9 e73d
000001e0: 688a ebbd f4ab 31bd 99f7 8b3d 9581 08be
000001f0: 35c0 493d bd2f dabd d385 84be a11a c73d
00000200: e0dc 983c f911 8c3d 00c7 f23e 2551 24be
00000210: 291d afbe bdf8 97bd 0554 a63d 5709 913c
00000220: 10d4 0a3c a8bb e53e 40fb 95be 5392 ccbe
00000230: acfb eabe 2278 88bf 7555 953d 042c 113f
00000240: 5f2d 5bbe bf3e b43d 4a1d 26bf f115 db3d
00000250: 92a8 013e 403e 31be 5c1a 163e 34aa 40bf
00000260: 476d 04bd 1ab5 0fbf 8149 a5be 691f a2bd
00000270: 2e8d 8cbe cc00 633e 13cd f13c 1bad 67bd
00000280: 4242 1cbe 71e0 913e ecbb 4c3e 98c9 c63e
00000290: 49af ef3d aa84 94bd aa7c 4fbf 9ce8 51be
000002a0: 5596 543f 2565 e9be 25af ecbb 70d2 9a3e
000002b0: 9c2c cabe 28c8 21be 6566 6abe 6ee0 13be
000002c0: 8af9 1cbc 2188 8f3e a1e2 853e ef8c 62be
000002d0: 3934 00bd c39d 963e 12fb 8fbe 5bdb 26bf
000002e0: a399 b53d 9bca bf3e 35e4 c23e 63c2 8e3e
000002f0: 3cc2 843d 33a8 a0be a099 debe a6c8 6c3e
00000300: 877a 28be a9b3 183f 3dd8 e1be daac 673e
00000310: 99ef 10be ff3f d33e f11f 693e 3c5d 9cbd
00000320: 540c d93d d123 28bf c199 e5be a9ec a23e
00000330: c74f ed3d 9135 0c3e 4d0a 583e 2cf3 9bbd
00000340: 25d5 a4be 6b73 ddbe d6f5 debd 6f6f 333d
00000350: fd2e c23d 5cc7 fcbd aa12 0dbe 859a 9ebc
00000360: 0b57 2c3e 0aeb 593c 85e8 433e 40d6 90be
00000370: e00f 6c3d aae1 1e3e ee66 c33d 7f24 8fbe
00000380: 30b0 0b3e 4ac9 14be 749a 1cbf b677 c8be
00000390: 0315 acbe 2e98 123e 76b9 843e 16d6 b03e
000003a0: 9a32 a43d 8924 9f3e 43de c53d 87c9 0ebf
000003b0: 8d84 563d 652b 0fbc 82e6 50be 56c8 72bd
000003c0: 4e98 11bf 1be6 173e a50e b73c 369a a33e
000003d0: eeb0 43be 72d6 90be a1eb dbbd 1d31 c53e
000003e0: c6ec fa3d 3807 8e3e bbd4 24bf 750e 103e
000003f0: 65e1 38bd 1b0b 393e 2faa 8b3d 027c b23d

sequential_1/dense_3_1/BiasAdd/ReadVariableOp:0 f4 [7]
-0.034530193 0.082221285 -0.3463571 -0.13016017 0.04793081 0.36424473 -0.070670135
00000000: 886f 0dbd a263 a83d b855 b1be b548 05be
00000010: 1953 443d 497e ba3e 81bb 90bd

sequential_1/dense_2_1/Cast/ReadVariableOp:0 f4 [128, 128]
0.15333425 -0.11979484 0.05254528 0.062794805 0.24497868 -0.110561326 -0.084929265 0.13615225
-0.02855448 0.12740494 0.1493017 0.052470848 0.09210346 0.1296675 -0.0931992 -0.07397687
-0.07206844 0.105761945 0.17404911 -0.15215537 0.1386759 0.147511 -0.21501115 0.0004546702
0.20812814 0.13517669 0.30877048 0.21203227 0.12280045 0.06878684 -0.08424946 -0.1479465
0.23390514 0.12251161 -0.14669456 0.25228795 0.061554767 -0.061550442 0.14205575 0.026387801
-0.04305794 -0.057989344 0.1411184 0.10496104 0.15979482 0.054230638 0.14670832 0.1737624
0.08807058 -0.029081624 0.026680253 0.30350307 -0.1160516 -0.3315133 0.17131889 -0.14900088
-0.15712108 0.09504117 0.020089803 -0.1042271 0.12955174 0.100354075 0.12074767 -0.17603098
0.17173825 0.037553255 0.05260754 -0.056952678 -0.26917928 0.08934464 -0.02759948 -0.15195175
-0.14428769 0.16136195 0.0061396 0.002344708 -0.03188662 0.13639134 0.10262531 0.15283802
0.10586794 0.073591344 0.033429928 -0.12637547 -0.067371875 0.0014862008 -0.16876128 0.10285157
0.15158884 -0.15338583 -0.17054826 0.32213622 0.13151246 0.17289625 -0.25555077 0.0035405352
-0.064546235 -0.034585048 0.0150325075 0.21750833 0.057903573 0.036878057 -0.11972352 -0.1238359
-0.17699519 -0.19356991 -0.35476133 0.0042114067 0.09184467 0.08329256 0.068661675 0.11060767
0.023950443 0.19840768 0.10010149 0.002750256 0.18878599 0.13393955 -0.13408883 -0.22630958
-0.0075150966 -0.08167916 0.110565156 -0.0040953024 0.04082573 -0.018228598 -0.18609267 0.10615738
-0.2645282 -0.056141872 -0.14617339 -0.03896358 0.18259889 0.028491512 0.090166666 -0.15398292
0.03864934 0.06372542 0.02577678 -0.23389101 -0.08621556 -0.14612073 -0.042929802 0.14869778
-0.01581219 0.093909964 0.029212212 0.1465404 0.1263208 0.39849308 -0.08080455 0.16199015
-0.15934257 0.12257796 -0.17756665 0.1242016 -0.22572687 -0.037370156 0.11835529 -0.16652898
0.21217766 0.37161082 0.1326832 0.08548053 0.1102116 -0.100522935 0.07549628 -0.089616925
-0.14594768 -0.0894596 -0.108859025 0.09715991 -0.1507934 0.08441655 -0.066132076 -0.0861464
-0.3285769 0.10678774 0.09930706 0.24198508 -0.2030925 -0.38535792 0.12649226 -0.027735291
0.24092826 -0.28550702 0.14900607 -0.21657294 0.046371732 0.17337644 -0.21506788 0.043424558
-0.2364519 -0.5247134 -0.14136066 -0.08358158 -0.13633268 0.067214526 0.14777471 -0.14838438
0.030513987 -0.14499246 -0.08032596 -0.017774343 0.0068238284 -0.14139055 -0.29168594 0.11775595
-0.23472019 -0.058594353 0.0061858175 -0.10924694 -0.09599993 0.02073776 -0.055227153 -0.047617387
-0.20395893 -0.020001877 0.03581864 0.07397189 0.18566836 0.3202355 0.08215125 -0.3816589
0.031074978 0.16813949 -0.25963578 0.115285814 0.036048084 -0.2943344 -0.21708766 -0.12319143
0.26658368 0.10318884 0.087244615 0.34217095 0.2407284 -0.12441016 0.027928436 0.012550466
0.04661156 0.06558751 -0.094752625 -0.1101439 0.19479658 0.012422186 0.06867616 0.040428907
0.13963787 -0.2422508 0.15998895 0.09517044 -0.0019957582 -0.1874433 0.04816172 0.10193058
00000000: a703 1d3e ff56 f5bd b839 573d 909a 803d
00000010: b1db 7a3e fa6d e2bd 65ef adbd 7f6b 0b3e
00000020: 16eb e9bc 7176 023e 8be2 183e aceb 563d
00000030: bda0 bc3d 8fc7 043e 39df bebd 2f81 97bd
00000040: 9e98 93bd b899 d83d ee39 323e 9ece 1bbe
00000050: 0e01 0e3e 200d 173e e22b 5cbe cd60 ee39
00000060: 8b1f 553e c26b 0a3e 2a17 9e3e fd1e 593e
00000070: cd7e fb3d 1de0 8c3d fb8a acbd 4a7f 17be
00000080: d484 6f3e 5ee7 fa3d 1937 16be e32b 813e
00000090: da20 7c3d 511c 7cbd 1077 113e 3b2b d83c
000000a0: 865d 30bd 3c86 6dbd 5881 103e d0f5 d63d
000000b0: 41a1 233e f220 5e3d b53a 163e c5ee 313e
000000c0: 595e b43d 963c eebc 8c90 da3c c164 9b3e
000000d0: 76ac edbd 1cbc a9be 386e 2f3e b093 18be
000000e0: 59e4 20be f2a4 c23d 5f93 a43c 0575 d5bd
000000f0: 36a9 043e 7086 cd3d 8e4a f73d 7741 34be
00000100: 27dc 2f3e 71d1 193d 017b 573d 3647 69bd
00000110: ded1 89be 53fa b63d 4e18 e2bc 3d99 1bbe
00000120: 27c0 13be 113c 253e b32e c93b aca9 193b
00000130: 8b9b 02bd 2caa 0b3e 382d d23d 9281 1c3e
00000140: 4ad1 d83d 0fb7 963d d2ed 083d 9268 01be
00000150: 44fa 89bd a0cc c23a c2cf 2cbe d8a3 d23d
00000160: 1b3a 1b3e 2d11 1dbe 34a4 2ebe 0aef a43e
00000170: 34ab 063e b70b 313e 8dd7 82be 5308 683b
00000180: d130 84bd 0da9 0dbd e84a 763c 81ba 5e3e
00000190: 4c2c 6d3d 720d 173d 9b31 f5bd ad9d fdbd
000001a0: 3a3e 35be 3137 46be 47a3 b5be d7ff 893b
000001b0: 0f19 bc3d 4a95 aa3d 7e9e 8c3d 4686 e23d
000001c0: b833 c43c 622b 4b3e 0302 cd3d a43d 343b
000001d0: 1d51 413e 7327 093e 954e 09be b3bd 67be
000001e0: 3341 f6bb 6747 a7bd fc6f e23d e331 86bb
000001f0: e138 273d 2454 95bc 148f 3ebe 0a69 d93d
00000200: 3d70 87be 05f5 65bd 7aae 15be 4698 1fbd
00000210: 34fb 3a3e 0867 e93c 4da9 b83d b3ad 1dbe
00000220: c54e 1e3d 7982 823d d329 d33c 2081 6fbe
00000230: c991 b0bd aca0 15be 29d7 2fbd 3b44 183e
00000240: 9188 81bc de53 c03d 734e ef3c b00e 163e
00000250: 3d5a 013e 4907 cc3e db7c a5bd bfe0 253e
00000260: b32a 23be 270a fb3d 08d4 35be 695d fe3d
00000270: f224 67be 7311 19bd 4264 f23d 9386 2abe
00000280: 1a45 593e c643 be3e 1bde 073e 6b10 af3d
00000290: 9fb6 e13d f8de cdbd cb9d 9a3d 1489 b7bd
000002a0: 4f73 15be 9836 b7bd 7bf1 debd c6fb c63d
000002b0: 9669 1abe 96e2 ac3d 4170 87bd 866d b0bd
000002c0: 3b3b a8be 88b3 da3d 8061 cb3d f0ca 773e
000002d0: 7bf7 4fbe a24d c5be 3087 013e 1f35 e3bc
000002e0: e6b5 763e fa2d 92be 0c95 183e 4cc5 5dbe
000002f0: 49f0 3d3d 9889 313e c13a 5cbe f3dd 313d
00000300: 7220 72be 9e53 06bf d9c0 10be d22c abbd
00000310: cb9a 0bbe c5a7 893d 4152 173e 13f2 17be
00000320: 78f8 f93c e778 14be f081 a4bd 809b 91bc
00000330: 6c9a df3b afc8 10be dc57 95be 082a f13d
00000340: 7d5a 70be a200 70bd 66b2 ca3b dcbc dfbd
00000350: 9c9b c4bd 3ce2 a93c de35 62bd 730a 43bd
00000360: 9cda 50be fada a3bc 91b6 123d 937e 973d
00000370: d91f 3e3e e8f5 a33e ea3e a83d cc68 c3be
00000380: f490 fe3c c22c 2c3e fbee 84be f81a ec3d
00000390: 28a7 133d 00b3 96be 3a4c 5ebe ca4b fcbd
000003a0: a87d 883e ac54 d33d 4ead b23d 0831 af3e
000003b0: 8181 763e c1ca febd 2dca e43c 78a0 4d3c
000003c0: c3eb 3e3d bf52 863d aa0d c2bd 2093 e1bd
000003d0: c178 473e 6d86 4b3c 16a6 8c3d c898 253d
000003e0: 3bfd 0e3e 9810 78be 25d4 233e b8e8 c23d
000003f0: 44cb 02bb 23f1 3fbe 3945 453d fbc0 d03d

sequential_1/dense_2_1/BiasAdd/ReadVariableOp:0 f4 [128]
-0.08401686 -0.0752119 -0.014108114 -0.045271676 -0.027147302 -0.014010061 -0.059739284 -0.004428313
-0.166511 -0.018038383 -0.31170228 -0.17148045 -0.20052074 -0.13538204 -0.071987174 -0.038144358
-0.077666506 -0.021214906 -0.09127495 -0.020393003 -0.14227967 -0.06430299 -0.049620472 -0.19866282
0.06379845 -0.17806724 -0.08804587 -0.34417307 -0.1360353 -0.18293756 -0.024498751 0.42165014
-0.020862449 -0.1466878 0.013686183 -0.30580154 -0.050816253 0.3248573 -0.13541578 -0.15746495
-0.05763209 -0.08537755 -0.04705698 -0.07345007 -0.13397929 -0.06450655 -0.11708512 0.09541535
-0.19674979 -0.29710025 -0.046490546 -0.052437447 -0.18515459 -0.091105394 -0.109540164 -0.065324344
-0.1731464 -0.16920629 0.0010844311 -0.06284003 -0.033825185 -0.15686004 -0.07554546 0.4122126
-0.09944944 -0.2060652 -0.14345448 0.24018222 -0.17845555 -0.014828151 -0.027241357 0.18160675
-0.04258001 -0.16148816 -0.02707846 -0.2291343 0.44887462 -0.15077479 0.3015024 -0.07639911
0.042079847 -0.020902524 -0.031402607 -0.032682475 -0.07635169 -0.1238047 0.38127947 0.3540884
0.23612371 0.21530741 -0.0761999 -0.25980234 -0.048839904 -0.07076071 -0.08449853 0.09601421
0.4092973 -0.043568235 0.19967587 0.09177793 -0.15265107 8.622475e-06 -0.04244924 0.24871266
-0.099177495 0.011195784 0.12086711 -0.034679376 -0.1343772 -0.281436 0.29395035 -0.1522743
-0.05419174 -0.019054322 -0.19714439 -0.04692552 -0.08562318 -0.09562659 0.16535561 0.1225335
-0.044873558 -0.023657383 -0.15176712 -0.16813129 -0.04263148 0.1919709 -0.036015585 0.110025145
00000000: 0811 acbd b208 9abd b825 67bc cb6e 39bd
00000010: 0564 debc 748a 65bc 2eb1 74bd 621b 91bb
00000020: dc81 2abe 3bc5 93bc 7197 9fbe 9298 2fbe
00000030: 4f55 4dbe 97a1 0abe 036e 93bd 423d 1cbd
00000040: 9e0f 9fbd e2ca adbc 5cee babd 3a0f a7bc
00000050: c3b1 11be 49b1 83bd d63e 4bbd 446e 4bbe
00000060: c3a8 823d 4257 36be 6551 b4bd 7437 b0be
00000070: d64c 0bbe fc53 3bbe 9bb1 c8bc 87e2 d73e
00000080: bae7 aabc 5435 16be 033c 603c 0592 9cbe
00000090: b424 50bd b253 a63e 6faa 0abe 7e3e 21be
000000a0: a00f 6cbd 6dda aebd d2be 40bd fe6c 96bd
000000b0: de31 09be 031c 84bd 53ca efbd 1f69 c33d
000000c0: c778 49be 861d 98be df6c 3ebd a6c8 56bd
000000d0: 2a99 3dbe 7795 babd 9856 e0bd c5c8 85bd
000000e0: 4a4d 31be 6a44 2dbe 7823 8e3a 46b2 80bd
000000f0: 478c 0abd eb9f 20be 94b7 9abd 880d d33e
00000100: 26ac cbbd c102 53be bbe5 12be 54f2 753e
00000110: 0dbd 36be c6f1 72bc 4429 dfbc 1ff7 393e
00000120: 6068 2ebd 275d 25be a6d3 ddbc 2fa2 6abe
00000130: e5d2 e53e b564 1abe 865e 9a3e 2377 9cbd
00000140: eb5b 2c3d c53b abbc 05a0 00bd 0fde 05bd
00000150: 465e 9cbd 528d fdbd 1037 c33e 134b b53e
00000160: 6aca 713e 8c79 5c3e b10e 9cbd d004 85be
00000170: 5a0c 48bd feea 90bd 910d adbd 19a3 c43d
00000180: 6a8f d13e 9b74 32bd d577 4c3e 11f6 bb3d
00000190: 9050 1cbe 40a9 1037 41df 2dbd 88ae 7e3e
000001a0: 921d cbbd 866e 373c 2d89 f73d f60b 0ebd
000001b0: 2d9a 09be 6118 90be a980 963e cbed 1bbe
000001c0: 28f8 5dbd cf17 9cbc 38e0 49be f934 40bd
000001d0: 355b afbd e0d7 c3bd fb52 293e d8f2 fa3d
000001e0: 56cd 37bd 21cd c1bc d768 1bbe 9c2a 2cbe
000001f0: 599e 2ebd 0594 443e 1485 13bd dd54 e13d

sequential_1/dense_1_2/Cast/ReadVariableOp:0 f4 [128, 128]
0.12484773 -0.116268456 0.09457975 0.101268 -0.09395641 -0.04169514 -0.050286092 0.05136895
-0.07543434 0.0067278743 0.101679996 -0.05150345 0.05608821 -0.077970356 -0.11964874 0.10258714
0.13446628 0.0721208 0.12906554 -0.028322399 0.11042611 -0.09140804 0.010798156 0.02364245
0.050693333 0.012483932 -0.06724222 -0.052913748 0.024347937 -0.018409925 -0.023763046 -0.030782707
-0.119741276 0.0893284 0.03557504 0.10175259 0.022244528 0.14439462 0.13033621 -0.04031825
-0.104343146 0.06233221 0.13400638 -0.0282064 -0.0026713759 -0.12005116 0.011735007 0.0047824085
0.019635886 0.006372302 0.14034046 -0.106310785 -0.035789013 0.07645691 -0.08699548 -0.063110106
0.023101915 -0.123831674 0.086319394 0.10924372 0.074530765 0.0958319 0.10503065 -0.066886224
0.105297245 0.12451997 0.059872646 -0.06371461 0.14430346 0.098746516 0.01575613 0.02264597
0.09993285 0.040386602 -0.12165904 -0.13376142 0.11059801 0.13784565 -0.11086993 0.055210665
-0.12714732 -0.031034471 -0.053739138 0.09356548 0.10716099 -0.011386595 0.04408203 0.009176177
0.09126191 -0.03877092 0.028770253 0.061631802 -0.058737274 0.091706455 -0.03220106 0.09540116
-0.06320948 -0.1439634 -0.13926522 0.0024336576 -0.008330652 0.110778645 -0.11128705 -0.06041197
-0.072756395 0.13067918 -0.13307324 -0.15287995 -0.057508856 -0.10435712 0.030254215 -0.08670463
-0.0102470815 0.07255998 -0.011659811 -0.09180082 0.040631287 0.0050501376 0.1284072 -0.102988854
-0.15205705 0.07792052 0.12803416 -0.13973758 -0.11073838 -0.021398835 0.016924977 0.14560257
-0.026937354 0.009877652 -0.06550828 -0.09160152 -0.06474121 -0.03799358 -0.06058383 0.10748698
-0.024310768 -0.023394287 -0.05627925 0.107561186 -0.14809546 0.005822152 -0.13726862 -0.044580556
0.07406242 0.019207278 0.009365886 0.06976196 -0.04907184 0.021315739 -0.14418918 -0.06218178
0.09806539 -0.067854345 0.12788394 -0.12495154 -0.13085581 0.057457596 -0.03291723 0.045750014
-0.058080483 -0.11517162 -0.08980177 0.018807992 -0.11127752 -0.06161637 -0.092278376 0.044765726
-0.08935384 -0.11524285 0.020892285 -0.14192408 -0.0765905 0.13528539 -0.12771356 -0.07721437
0.028222827 0.13452473 0.03893444 0.1530147 0.10915692 -0.0052879006 0.116647854 -0.15164725
-0.026782857 -0.05518213 0.07583739 -0.013038082 -0.15069549 -0.118198335 -0.077058986 0.11296894
0.055891454 0.14724694 -0.043820687 -0.083108135 -0.08100225 -0.04887536 -0.08039244 -0.10351991
-0.07177905 -0.046554822 -0.0332537 0.017635852 0.11441158 -0.033298627 0.07312338 0.140945
-0.09611065 -0.07954155 -0.004346808 0.11529355 0.120136656 -0.034040548 0.12866692 -0.053634327
-0.081074744 -0.109183855 -0.15025759 0.06960935 -0.057289127 0.15081485 -0.10327378 -0.07638236
0.15305468 -0.10696714 -0.10322745 -0.10203961 0.016286513 -0.14461769 -0.01570101 0.02955991
-0.14445862 -0.10149478 0.13942267 -0.071027964 0.08007942 -0.10553779 -0.050005987 0.030922607
-0.13299505 0.14356618 -0.026884926 0.07249054 0.11096055 -0.044982314 -0.033886388 -0.0021415297
-0.038831692 -0.008611172 -0.11217302 0.018760517 -0.11518387 -0.13709134 -0.120196104 -0.10189912
00000000: 2bb0 ff3d 281e eebd 07b3 c13d 9965 cf3d
00000010: 386c c0bd 86c8 2abd caf8 4dbd 4068 523d
00000020: 527d 9abd 8075 dc3b 9a3d d03d 48f5 52bd
00000030: c0bc 653d ecae 9fbd 660a f5bd 3519 d23d
00000040: 87b1 093e 12b4 933d c229 043e 6004 e8bc
00000050: 1627 e23d 2334 bbbd c0ea 303c d0ad c13c
00000060: d0a3 4f3d 6889 4c3c 4ab6 89bd 16bc 58bd
00000070: 5375 c73c 69d0 96bc b8aa c2bc 042c fcbc
00000080: ea3a f5bd cff1 b63d 22b7 113d a963 d03d
00000090: 283a b63c 2fdc 133e db76 053e c024 25bd
000000a0: dcb1 d5bd 0f50 7f3d f838 093e 1c11 e7bc
000000b0: 4012 2fbb 62dd f5bd 3044 403c c0b5 9c3b
000000c0: 70db a03c bece d03b 69b5 0f3e 78b9 d9bd
000000d0: 8097 12bd 7195 9c3d b02a b2bd df3f 81bd
000000e0: 3a40 bd3c 769b fdbd 39c8 b03d 2cbb df3d
000000f0: 96a3 983d 8443 c43d 4f1a d73d a5fb 88bd
00000100: 15a6 d73d 5304 ff3d 053d 753d ce7c 82bd
00000110: 49c4 133e 9d3b ca3d 0013 813c 0b84 b93c
00000120: 98a9 cc3d 6c6c 253d 6028 f9bd c1f8 08be
00000130: 3681 e23d 6927 0d3e c60f e3bd 9424 623d
00000140: e832 02be 013c febc 921d 5cbd 429f bf3d
00000150: 3977 db3d d78e 3abc 5c8f 343d ad57 163c
00000160: 86e7 ba3d 42ce 1ebd 98af eb3c a171 7c3d
00000170: 7f96 70bd 98d0 bb3d 42e5 03bd af61 c33d
00000180: f973 81bd 246b 13be 8b9b 0ebe 007e 1f3b
00000190: 497d 08bc eadf e23d 77ea e3bd 8b72 77bd
000001a0: 4e01 95bd c3d0 053e 5a44 08be 908c 1cbe
000001b0: 688e 6bbd 30b9 d5bd b0d7 f73c 3292 b1bd
000001c0: 60e3 27bc 549a 943d cb08 3fbc 1102 bcbd
000001d0: fe6c 263d a07b a53b 2d7d 033e d2eb d2bd
000001e0: d8b4 1bbe cb94 9f3d 631b 033e 5e17 0fbe
000001f0: ceca e2bd 9c4c afbc 40a6 8a3c d718 153e
00000200: baab dcbc e0d5 213c 3529 86bd 9499 bbbd
00000210: 0a97 84bd 289f 1bbd c026 78bd 2222 dc3d
00000220: 6027 c7bc 60a5 bfbc 1285 66bd 0a49 dc3d
00000230: 56a6 17be c0c7 be3b 2590 0cbe 1a9a 36bd
00000240: 0aae 973d 9558 9d3c 6073 193c 5cdf 8e3d
00000250: 8eff 48bd 589e ae3c 54a6 13be 52b2 7ebd
00000260: 82d6 c83d 38f7 8abd 02f4 023e 98e6 ffbd
00000270: 11ff 05be a858 6b3d 38d4 06bd 5e64 3b3d
00000280: cde5 6dbd 19df ebbd fee9 b7bd 3813 9a3c
00000290: 78e5 e3bd 7261 7cbd 72fc bcbd 445c 373d
000002a0: 25ff b6bd 7104 ecbd 4c26 ab3c 8c54 11be
000002b0: 7bdb 9cbd 4188 0a3e 58c7 02be 9122 9ebd
000002c0: 8f33 e73c dac0 093e b879 1f3d e3af 1c3e
000002d0: aa8d df3d 2046 adbb 12e5 ee3d 6b49 1bbe
000002e0: b967 dbbc a806 62bd a250 9b3d ae9d 55bc
000002f0: eb4f 1abe f811 f2bd 1ad1 9dbd 425c e73d
00000300: 70ee 643d e7c7 163e 527d 33bd 9934 aabd
00000310: 82e4 a5bd 8831 48bd cba4 a4bd 3f02 d4bd
00000320: e500 93bd 45b0 3ebd 0835 08bd 1079 903c
00000330: 9e50 ea3d 2464 08bd b6c1 953d e353 103e
00000340: a9d5 c4bd aee6 a2bd ab6f 8ebb 061f ec3d
00000350: 350a f63d 1a6e 0bbd 43c1 033e abaf 5bbd
00000360: 840a a6bd c99b dfbd 20dd 19be 598f 8e3d
00000370: 01a8 6abd 356f 1a3e 3481 d3bd 5b6e 9cbd
00000380: 5eba 1c3e 9711 dbbd ea68 d3bd 25fa d0bd
00000390: 4b6b 853c a916 14be 689f 80bc a027 f23c
000003a0: f6ec 13be 7fdc cfbd d1c4 0e3e 1c77 91bd
000003b0: ae00 a43d 3224 d8bd 14d3 4cbd 6851 fd3c
000003c0: db2f 08be 0303 133e c73d dcbc ec75 943d
000003d0: 493f e33d 603f 38bd 74cc 0abd e858 0cbb
000003e0: fb0d 1fbd e015 0dbc f8ba e5bd a8af 993c
000003f0: 85e5 ebbd ac61 0cbe 6029 f6bd 7cb0 d0bd

sequential_1/dense_1_2/BiasAdd/ReadVariableOp:0 f4 [128]
-0.22900389 -0.0062032654 -0.037444465 -0.046976708 -0.047636308 0.009864096 -0.015980767 0.0136881005
0.122372136 -0.006605364 -0.20972693 -0.11760748 -0.14950612 0.024614878 -0.054976206 -0.010377009
-0.027932828 0.010904963 -0.18099968 0.0 0.036302745 -0.050782815 0.07134478 0.13684593
0.09055332 0.24100211 0.2321225 -0.17230386 -0.013365555 -0.021969192 -0.0021122112 -0.24964294
0.26081637 0.081257604 -0.26055342 -0.12102475 -0.028921371 -0.034172613 -0.010073566 0.005300854
-0.01849403 -0.20747486 0.17765489 -0.09253361 0.049831774 -0.039392587 -0.29192916 -0.014486875
-0.01599245 -0.01463847 -0.012941557 -0.053423263 -0.0022970228 -0.16608313 -0.18133485 0.15531804
-0.1200583 -0.02253972 -0.020351775 0.048182726 -0.031727057 -0.13639306 -0.05387206 -0.005203812
0.06515238 -0.037760973 -0.1708216 -0.043057527 -0.004668019 -0.0019795413 -0.026748499 0.0124578355
-0.05793624 0.015516686 -0.026793344 -0.0998263 -0.12646812 -0.022127135 -0.15956607 -0.15527263
-0.043156452 -0.03568973 -0.1950696 -0.035669625 -0.0036944102 -0.07028373 -0.0064339507 -0.05216783
-0.036232352 -0.14777106 -0.04095454 -0.097348236 -0.019405907 -0.029945912 -0.20314218 -0.0072007845
0.115197204 0.11436127 -0.03095807 -0.008331489 -0.01821291 -0.0063025095 0.2588228 -0.04497803
-0.21158148 0.14549725 -0.033651695 0.19070709 0.17902943 -0.22399835 -0.029909521 -0.12013194
-0.015789581 -0.017494245 -0.1331394 -0.0065527465 -0.17905182 0.036902364 -0.01698723 0.219981
-0.12198124 -0.048533294 -0.20402218 0.09290097 0.13379148 0.002672738 -0.019991292 -0.22695257
00000000: ff7f 6abe c344 cbbb 5e5f 19bd a66a 40bd
00000010: 4a1e 43bd 049d 213c 19ea 82bc 0e44 603c
00000020: 3e9e fa3d cf71 d8bb a8c2 56be 31dc f0bd
00000030: 2218 19be 24a5 c93c bb2e 61bd 5504 2abc
00000040: 63d3 e4bc bbaa 323c fb57 39be 0000 0000
00000050: 30b2 143d a401 50bd 361d 923d 5721 0c3e
00000060: 0574 b93d 42c9 763e 85b1 6d3e 6c70 30be
00000070: 33fb 5abc bcf8 b3bc 066d 0abb 66a2 7fbe
00000080: b989 853e 636a a63d 4267 85be d3db f7bd
00000090: 83ec ecbc 95f8 0bbd 990b 25bc c9b2 ad3b
000000a0: cb80 97bc 4a74 54be 2aeb 353e 4382 bdbd
000000b0: 671c 4c3d 1f5a 21bd bd77 95be 5c5a 6dbc
000000c0: 9902 83bc 31d6 6fbc d308 54bc 5ad2 5abd
000000d0: a689 16bb b211 2abe d8af 39be b10b 1f3e
000000e0: 20e1 f5bd 38a5 b8bc c4b8 a6bc 405b 453d
000000f0: 3bf4 01bd 9faa 0bbe f3a8 5cbd bd84 aabb
00000100: 9c6e 853d 40ab 1abd dceb 2ebe 175d 30bd
00000110: 2ef6 98bb 31bb 01bb ab1f dbbc f31b 4c3c
00000120: 8d4e 6dbd b339 7e3c b77d dbbc bb71 ccbd
00000130: dc80 01be f743 b5bc 4a65 23be caff 1ebe
00000140: d2c4 30bd 652f 12bd 53c0 47be 501a 12bd
00000150: eb1d 72bb ebf0 8fbd e4d3 d2bb efad 55bd
00000160: 6068 14bd 4c51 17be f3bf 27bd 835e c7bd
00000170: 23f9 9ebc 2151 f5bc 8104 50be 8ff4 ebbb
00000180: 83ec eb3d 3e36 ea3d c79b fdbc cc80 08bc
00000190: 3e33 95bc 4885 cebb 6c84 843e e23a 38bd
000001a0: d1a8 58be 3bfd 143e 5cd6 09bd b848 433e
000001b0: 7e53 373e d35f 65be d004 f5bc bc07 f6bd
000001c0: 2759 81bc 1750 8fbc b255 08be 6cb8 d6bb
000001d0: 5c59 37be ef26 173d ce28 8bbc b342 613e
000001e0: 4dd1 f9bd d9ca 46bd 31eb 50be dd42 be3d
000001f0: a200 093e 1a29 2f3b c7c4 a3bc 4166 68be

sequential_1/dense_1/Cast/ReadVariableOp:0 f4 [250, 128]
-0.081408925 -0.0023884194 -0.14507248 0.013124442 -0.0029604144 -0.07213305 0.16679 0.19147281
-0.09885609 -0.06691113 0.015349412 -0.118631326 0.032076705 0.071042314 0.062049665 -0.25141284
-0.05846953 0.06286404 0.0367404 -0.021358984 0.105571076 -0.03139458 -0.08848437 -0.038927443
-0.0028722547 0.01321833 -0.105190136 0.031747043 0.07699223 0.011246019 0.093827546 -0.021865621
-0.039765555 0.013627257 -0.2915177 -0.08301471 0.1730357 -0.041281942 0.054116126 -0.12163914
0.17404173 -0.03810379 -0.110781826 -0.06923675 0.08425728 0.0029340088 -0.021120537 0.0021375106
-0.011696257 0.046810314 -0.00684534 -0.095611185 -0.15696254 -0.036358222 -0.09112225 -0.0034457084
-0.103710294 0.060825795 -0.008105506 -0.060514204 0.0017618837 -0.12807208 -0.073897816 -0.062003486
-0.07876197 0.037267447 -0.06328223 -0.30454594 0.04033795 -0.07193391 0.08642764 -0.02738831
0.019361898 -0.005858631 -0.05135393 0.10229327 0.028241398 0.22682035 -0.05388388 0.02694179
0.041611463 0.033903554 -0.11774221 0.087539375 -0.114159495 -0.10203035 -0.056342088 -0.04261558
-0.051978845 -0.15417203 0.049800877 -0.062306646 0.26101676 0.11348303 -0.17420077 -0.12715569
0.0048467205 0.11229958 0.106280595 0.07179512 0.11789923 -0.113763504 0.052110095 0.03200552
0.032960795 0.07703177 0.08298211 -0.1029724 0.12308931 -0.12213456 0.28403375 0.049473748
0.21159963 0.076330885 0.105089456 -0.10972532 -0.09967897 -0.0130374 -0.12431872 0.12088346
-0.074642934 -0.0005514542 -0.08891579 -0.05371208 -0.042987525 -0.036115956 -0.0550915 -0.10253951
0.094182424 0.10050174 -0.23412216 -0.10284108 0.043757007 -0.03465992 0.14648597 0.23424245
-0.008378678 0.018648772 -0.04725999 -0.022754893 -0.05687043 0.0685 0.15452483 -0.21040767
-0.026227599 0.16396838 -0.038380865 0.11756765 0.21035568 0.10093926 -0.13237129 -0.1083
0.040284194 -0.088292725 -0.13400416 -0.11238238 -0.072702274 0.004287312 0.1013556 0.07449879
-0.029949373 -0.06570997 -0.10318768 -0.085287675 0.21021613 0.029212693 -0.12115193 -0.14920281
0.107708946 -0.008147772 -0.05032476 0.032159273 -0.053493027 -0.10971103 -0.07207266 0.088136375
-0.10419177 -0.09029281 -0.0240601 0.0029882684 -0.1301784 -0.11274729 -0.024581848 0.05252203
-0.06033111 0.10143766 0.17928176 0.074540325 0.09873165 -0.10852239 0.17016661 0.082709104
0.045862287 0.07086707 -0.013259516 -0.2729364 -0.05973319 -0.16482998 -0.06026593 0.1031078
0.1062175 0.048315063 -0.0708763 0.0386103 -0.006208138 0.095653936 0.07937637 0.003921365
-0.10232495 -0.08203673 0.12403196 -0.0032570956 -0.04474461 -0.04138748 -0.123395704 0.081045836
-0.10652807 -0.20076066 0.09684924 -0.106061205 0.14065574 0.0810664 0.05778346 -0.03462967
-0.006595947 0.11641509 -0.016549202 0.033240758 0.031608555 0.061495095 -0.06616952 -0.06144187
-0.15172115 0.16168198 0.115107715 0.0062870234 -0.09411375 0.01530318 0.18596742 0.11639047
0.08178641 0.061420724 -0.07916475 0.0975977 -0.0053793164 -0.08590624 -0.06005041 -0.038381252
-0.11842155 0.030670816 0.0048317453 -0.1315466 -0.04760395 -0.007031871 -0.08617585 0.11138038
00000000: b9b9 a6bd 0787 1cbb e18d 14be e607 573c
00000010: 8303 42bb 7eba 93bd ffca 2a3e 7311 443e
00000020: 1075 cabd b408 89bd 1a7c 7b3c fbf4 f2bd
00000030: dd62 033d a27e 913d ca27 7e3d 2fb9 80be
00000040: bf7d 6fbd ddbe 803d 1a7d 163d 09f9 aebc
00000050: a635 d83d 9a97 00bd 4b37 b5bd 6272 1fbd
00000060: 703c 3cbb b291 583c ed6d d7bd 3009 023d
00000070: 1aae 9d3d 3941 383c a828 c03d 881f b3bc
00000080: 35e1 22bd dc44 5f3c cf41 95be 9e03 aabd
00000090: 4530 313e 4117 29bd dfa8 5d3d f11d f9bd
000000a0: ff37 323e b812 1cbd 95e1 e2bd ffcb 8dbd
000000b0: 158f ac3d 8048 403b fa04 adbc 7a15 0c3b
000000c0: a8a1 3fbc 2cbc 3f3d e04e e0bb cccf c3bd
000000d0: caba 20be 5cec 14bd 4d9e babd 65d1 61bb
000000e0: 1066 d4bd 7824 793d f5cc 04bc bedd 77bd
000000f0: 02ef e63a 5425 03be bd57 97bd 5ef7 7dbd
00000100: f54d a1bd c0a5 183d 1d9a 81bd 72ed 9bbe
00000110: 6839 253d 1652 93bd f900 b13d 735d e0bc
00000120: d89c 9e3c c2f9 bfbb 8058 52bd 227f d13d
00000130: 815a e73c 9843 683e 58b5 5cbd 07b5 dc3c
00000140: c870 2a3d 74de 0a3d d422 f1bd d847 b33d
00000150: 74cc e9bd 4af5 d0bd f6c6 66bd ad8d 2ebd
00000160: c5e7 54bd 46df 1dbe 01fc 4b3d 4135 7fbd
00000170: fda3 853e ca69 e83d b061 32be 1a35 02be
00000180: 3dd1 9e3b 52fd e53d a4a9 d93d 5209 933d
00000190: 2775 f13d d7fc e8bd 6571 553d 3818 033d
000001a0: e601 073d d5c2 9d3d 86f2 a93d 32e3 d2bd
000001b0: 4016 fc3d af21 fabd df6c 913e fca4 4a3d
000001c0: 93ad 583e 5e53 9c3d 2439 d73d abb7 e0bd
000001d0: 7d24 ccbd d29a 55bc d09a febd bf91 f73d
000001e0: 65de 98bd 778f 10ba 7b19 b6bd 3301 5cbd
000001f0: b013 30bd 53ee 13bd a0a7 61bd 3c00 d2bd
00000200: b7e2 c03d dbd3 cd3d b8bd 6fbe 589e d2bd
00000210: 8c3a 333d 8ff7 0dbd 6b00 163e 41dd 6f3e
00000220: b946 09bc 4fc5 983c b193 41bd 7868 babc
00000230: f8f0 68bd ba49 8c3d c23b 1e3e 1c75 57be
00000240: 43db d6bc 54e7 273e 4135 1dbd 4fc7 f03d
00000250: 7b67 573e 3eb9 ce3d 578c 07be 64cc ddbd
00000260: 0a01 253d d1d2 b4bd 6338 09be bc28 e6bd
00000270: eee4 94bd 947c 8c3b 8693 cf3d d292 983d
00000280: 6358 f5bc f392 86bd 1054 d3bd 4eab aebd
00000290: e642 573e 754f ef3c 811e f8bd 9fc8 18be
000002a0: 8296 dc3d 3c7e 05bc 5621 4ebd 71b9 033d
000002b0: 811b 5bbd 2db0 e0bd d59a 93bd d880 b43d
000002c0: 7f62 d5bd 70eb b8bd b019 c5bc d3d6 433b
000002d0: 7d4d 05be 0de8 e6bd df5f c9bc 5721 573d
000002e0: c11d 77bd 8cbe cf3d a395 373e 99a8 983d
000002f0: d233 ca3d fd40 debd 2840 2e3e 6463 a93d
00000300: 18da 3b3d c122 913d 713e 59bc 52be 8bbe
00000310: caaa 74bd 31c9 28be 68d9 76bd 2f2a d33d
00000320: 9088 d93d 04e6 453d 9827 91bd d525 1e3d
00000330: a36d cbbb 36e6 c33d 1490 a23d cb7e 803b
00000340: be8f d1bd e002 a8bd 7804 fe3d ff74 55bb
00000350: 2046 37bd eb85 29bd e3b6 fcbd 5cfb a53d
00000360: 642b dabd 3494 4dbe e558 c63d 9e36 d9bd
00000370: 0f08 103e 2406 a63d 59ae 6c3d d7d7 0dbd
00000380: d022 d8bb 096b ee3d 3192 87bc 7627 083d
00000390: f977 013d 48e2 7b3d e383 87bd 78aa 7bbd
000003a0: ca5c 1bbe f68f 253e 98bd eb3d 6003 ce3b
000003b0: b6be c0bd 30ba 7a3c 3e6e 3e3e 205e ee3d
000003c0: a27f a73d 4c94 7b3d 2121 a2bd 4ee1 c73d
000003d0: fa44 b0bb 9cef afbd 6bf7 75bd a935 1dbd
000003e0: ff86 f2bd 5d41 fb3c 9e53 9e3b 27b4 06be
000003f0: 5cfc 42bd 9c6b e6bb f77c b0bd 661b e43d

sequential_1/dense_1/BiasAdd/ReadVariableOp:0 f4 [128]
-0.0070877457 -0.0049739904 -0.09320576 -0.008307767 -0.008514863 -0.0058029103 0.0059548775 0.008514169
-0.008760776 -0.011440431 -0.0076133376 0.0 -0.005919079 0.0 0.011610434 -0.062097963
-0.014229766 0.004246783 -0.0046667913 -0.0060001365 -0.16541934 0.0 -0.16446725 -0.004771591
-0.009260631 0.03181446 -0.030650489 -0.006003265 0.0 0.025346344 -0.0070620235 0.0
-0.046110578 -0.007660915 -0.12840578 0.0 0.028526047 -0.061908495 -0.039627098 0.08115784
0.08089526 -0.0050970702 -0.015025155 0.05346887 0.08360644 0.0 -0.041321274 -0.007177546
0.0 0.0 0.0 -0.0073412517 -0.031687014 0.0 -0.016063767 -0.013907808
-0.010727367 0.0 -0.13543716 -0.03656597 -0.019220531 0.1088621 -0.005890195 0.0
0.0 0.004505605 0.048305884 -0.024399143 0.0 0.0927777 -0.0034759021 0.024193125
0.0 -0.006623593 0.0 -0.0050514583 0.005579062 0.07775027 0.0 -0.046234448
0.0 0.0 0.0 -0.008902513 -0.004250334 -0.0053504854 0.0 -0.008151821
-0.005927712 -0.06836885 -0.011543724 -0.00815156 -0.008490157 -0.009550967 -0.06700048 0.004646423
0.010426007 -0.0026767703 -0.0031877533 -0.0059962673 -0.008038992 0.0 -0.00984231 0.0
-0.011979609 0.005315274 -0.0075574815 -0.007902522 0.0 0.0 0.05276966 0.0
-0.047508415 0.0 0.0 0.01014136 -0.006297445 -0.017053569 -0.008340491 -0.0024280632
0.0 -0.0025462615 -0.0064151417 -0.0066986782 -0.0045470507 -0.005999359 0.065206125 0.0
00000000: 5240 e8bb dbfc a2bb a9e2 bebd 4d1d 08bc
00000010: ed81 0bbc 5726 bebb 2221 c33b 037f 0b3c
00000020: 5c89 0fbc a570 3bbc 4e79 f9bb 0000 0000
00000030: d5f4 c1bb 0000 0000 b139 3e3c 6f5a 7ebd
00000040: f723 69bc 9928 8b3b e2eb 98bb cb9c c4bb
00000050: b063 29be 0000 0000 1a6a 28be 025b 9cbb
00000060: e7b9 17bc e14f 023d bc16 fbbc 09b7 c4bb
00000070: 0000 0000 23a3 cf3c 8c68 e7bb 0000 0000
00000080: 72de 3cbd 6a08 fbbb ce7c 03be 0000 0000
00000090: 75af e93c c393 7dbd 0650 22bd 1536 a63d
000000a0: 6aac a53d 5305 a7bb 112c 76bc 2d02 5b3d
000000b0: da39 ab3d 0000 0000 7f40 29bd 9f31 ebbb
000000c0: 0000 0000 0000 0000 0000 0000 e28e f0bb
000000d0: 3eca 01bd 0000 0000 2998 83bc 93dd 63bc
000000e0: d7c1 2fbc 0000 0000 0ab0 0abe 33c6 15bd
000000f0: 6074 9dbc 18f3 de3d 8902 c1bb 0000 0000
00000100: 0000 0000 c1a3 933b 64dc 453d b6e0 c7bc
00000110: 0000 0000 3c02 be3d f6cb 63bb a930 c63c
00000120: 0000 0000 ba0a d9bb 0000 0000 b486 a5bb
00000130: 90d0 b63b 893b 9f3d 0000 0000 5560 3dbd
00000140: 0000 0000 0000 0000 0000 0000 d9db 11bc
00000150: 6346 8bbb 2053 afbb 0000 0000 378f 05bc
00000160: 413d c2bb f804 8cbd e321 3dbc 1f8e 05bc
00000170: 4d1a 0bbc a97b 1cbc 8c37 89bd 0541 983b
00000180: d8d1 2a3c c16c 2fbb a0e9 50bb 567c c4bb
00000190: fab5 03bc 0000 0000 a441 21bc 0000 0000
000001a0: 1f46 44bc c02b ae3b c0a4 f7bb 9479 01bc
000001b0: 0000 0000 0000 0000 0025 583d 0000 0000
000001c0: 2f98 42bd 0000 0000 0000 0000 f227 263c
000001d0: cc5a cebb edb3 8bbc 8ea6 08bc 2420 1fbb
000001e0: 0000 0000 2edf 26bb 1c36 d2bb 9680 dbbb
000001f0: 6dff 94bb 4596 c4bb ca8a 853d 0000 0000
